__________________________________________________________________________________________________
Layer (type)                    Output Shape         Param #     Connected to                     
==================================================================================================
input_layer (InputLayer)        (None, 128)          0                                            
__________________________________________________________________________________________________
embedding_1 (Embedding)         (None, 128, 300)     8329800     input_layer[0][0]                
__________________________________________________________________________________________________
spatial_dropout1d_1 (SpatialDro (None, 128, 300)     0           embedding_1[0][0]                
__________________________________________________________________________________________________
bidirectional_1 (Bidirectional) (None, 128, 128)     140544      spatial_dropout1d_1[0][0]        
__________________________________________________________________________________________________
global_average_pooling1d_1 (Glo (None, 128)          0           bidirectional_1[0][0]            
__________________________________________________________________________________________________
global_max_pooling1d_1 (GlobalM (None, 128)          0           bidirectional_1[0][0]            
__________________________________________________________________________________________________
concatenate_1 (Concatenate)     (None, 256)          0           global_average_pooling1d_1[0][0] 
                                                                 global_max_pooling1d_1[0][0]     
__________________________________________________________________________________________________
output_layer (Dense)            (None, 3)            771         concatenate_1[0][0]              
==================================================================================================
Total params: 8,471,115
Trainable params: 141,315
Non-trainable params: 8,329,800
__________________________________________________________________________________________________


----- Fold 1 of 10 -----
Epoch 001: val_loss improved from inf to 0.59148; runtime 0:00:05; BEST YET
…
