_________________________________________________________________
Layer (type)                 Output Shape              Param #   
=================================================================
input_layer (InputLayer)     (None, 128)               0         
_________________________________________________________________
embedding_1 (Embedding)      (None, 128, 300)          8329800   
_________________________________________________________________
spatial_dropout1d_1 (Spatial (None, 128, 300)          0         
_________________________________________________________________
bidirectional_1 (Bidirection (None, 128, 256)          440320    
_________________________________________________________________
global_max_pooling1d_1 (Glob (None, 256)               0         
_________________________________________________________________
output_layer (Dense)         (None, 3)                 771       
=================================================================
Total params: 8,770,891
Trainable params: 441,091
Non-trainable params: 8,329,800
_________________________________________________________________


----- Fold 1 of 10 -----
Epoch 001: val_loss improved from inf to 0.67021; runtime 0:00:03; BEST YET
Epoch 002: val_loss improved from 0.67021 to 0.61881; runtime 0:00:02; BEST YET
…
