_________________________________________________________________
Layer (type)                 Output Shape              Param #   
=================================================================
input_layer (InputLayer)     (None, 128)               0         
_________________________________________________________________
embedding_1 (Embedding)      (None, 128, 300)          8329800   
_________________________________________________________________
spatial_dropout1d_1 (Spatial (None, 128, 300)          0         
_________________________________________________________________
bidirectional_1 (Bidirection (None, 128, 512)          1142784   
_________________________________________________________________
spatial_dropout1d_2 (Spatial (None, 128, 512)          0         
_________________________________________________________________
bidirectional_2 (Bidirection (None, 128, 512)          1576960   
_________________________________________________________________
global_max_pooling1d_1 (Glob (None, 512)               0         
_________________________________________________________________
output_layer (Dense)         (None, 3)                 1539      
=================================================================
Total params: 11,051,083
Trainable params: 2,721,283
Non-trainable params: 8,329,800
_________________________________________________________________


----- Fold 1 of 10 -----
Epoch 001: val_loss improved from inf to 0.72994; runtime 0:00:13; BEST YET
Epoch 002: val_loss did not improve from 0.72994; runtime 0:00:12
Epoch 003: val_loss improved from 0.72994 to 0.56405; runtime 0:00:12; BEST YET
…
