_________________________________________________________________
Layer (type)                 Output Shape              Param #   
=================================================================
input_layer (InputLayer)     (None, 128)               0         
_________________________________________________________________
embedding_1 (Embedding)      (None, 128, 300)          8329800   
_________________________________________________________________
spatial_dropout1d_1 (Spatial (None, 128, 300)          0         
_________________________________________________________________
bidirectional_1 (Bidirection (None, 128, 512)          1142784   
_________________________________________________________________
global_max_pooling1d_1 (Glob (None, 512)               0         
_________________________________________________________________
output_layer (Dense)         (None, 3)                 1539      
=================================================================
Total params: 9,474,123
Trainable params: 1,144,323
Non-trainable params: 8,329,800
_________________________________________________________________


----- Fold 1 of 10 -----
Epoch 001: val_loss improved from inf to 0.69198; runtime 0:00:04; BEST YET
Epoch 002: val_loss improved from 0.69198 to 0.65638; runtime 0:00:04; BEST YET
…
