_________________________________________________________________
Layer (type)                 Output Shape              Param #   
=================================================================
input_layer (InputLayer)     (None, 128)               0         
_________________________________________________________________
embedding_1 (Embedding)      (None, 128, 300)          8329800   
_________________________________________________________________
spatial_dropout1d_1 (Spatial (None, 128, 300)          0         
_________________________________________________________________
bidirectional_1 (Bidirection (None, 128, 128)          140544    
_________________________________________________________________
spatial_dropout1d_2 (Spatial (None, 128, 128)          0         
_________________________________________________________________
bidirectional_2 (Bidirection (None, 128, 128)          74496     
_________________________________________________________________
global_max_pooling1d_1 (Glob (None, 128)               0         
_________________________________________________________________
output_layer (Dense)         (None, 3)                 387       
=================================================================
Total params: 8,545,227
Trainable params: 215,427
Non-trainable params: 8,329,800
_________________________________________________________________


----- Fold 1 of 10 -----
Epoch 001: val_loss improved from inf to 0.65090; runtime 0:00:14; BEST YET
Epoch 002: val_loss improved from 0.65090 to 0.55487; runtime 0:00:13; BEST YET
…
