_________________________________________________________________
Layer (type)                 Output Shape              Param #   
=================================================================
input_layer (InputLayer)     (None, 20000)             0         
_________________________________________________________________
dropout_1 (Dropout)          (None, 20000)             0         
_________________________________________________________________
dense_1 (Dense)              (None, 256)               5120256   
_________________________________________________________________
dropout_2 (Dropout)          (None, 256)               0         
_________________________________________________________________
output_layer (Dense)         (None, 3)                 771       
=================================================================
Total params: 5,121,027
Trainable params: 5,121,027
Non-trainable params: 0
_________________________________________________________________


----- Fold 1 of 10 -----
Epoch 001: val_loss improved from inf to 0.68987; runtime 0:00:02; BEST YET
Epoch 002: val_loss improved from 0.68987 to 0.46434; runtime 0:00:02; BEST YET
Epoch 003: val_loss improved from 0.46434 to 0.40531; runtime 0:00:02; BEST YET
…
