_________________________________________________________________
Layer (type)                 Output Shape              Param #   
=================================================================
input_layer (InputLayer)     (None, 20000)             0         
_________________________________________________________________
dropout_1 (Dropout)          (None, 20000)             0         
_________________________________________________________________
dense_1 (Dense)              (None, 300)               6000300   
_________________________________________________________________
dropout_2 (Dropout)          (None, 300)               0         
_________________________________________________________________
dense_2 (Dense)              (None, 300)               90300     
_________________________________________________________________
dropout_3 (Dropout)          (None, 300)               0         
_________________________________________________________________
output_layer (Dense)         (None, 3)                 903       
=================================================================
Total params: 6,091,503
Trainable params: 6,091,503
Non-trainable params: 0
_________________________________________________________________


----- Fold 1 of 10 -----
Epoch 001: val_loss improved from inf to 0.46677; runtime 0:00:02; BEST YET
Epoch 002: val_loss improved from 0.46677 to 0.41273; runtime 0:00:02; BEST YET
Epoch 003: val_loss improved from 0.41273 to 0.39683; runtime 0:00:02; BEST YET
…
