_________________________________________________________________
Layer (type)                 Output Shape              Param #   
=================================================================
input_layer (InputLayer)     (None, 20000)             0         
_________________________________________________________________
dropout_1 (Dropout)          (None, 20000)             0         
_________________________________________________________________
dense_1 (Dense)              (None, 32)                640032    
_________________________________________________________________
dropout_2 (Dropout)          (None, 32)                0         
_________________________________________________________________
output_layer (Dense)         (None, 3)                 99        
=================================================================
Total params: 640,131
Trainable params: 640,131
Non-trainable params: 0
_________________________________________________________________


----- Fold 1 of 10 -----
Epoch 001: val_loss improved from inf to 0.83895; runtime 0:00:03; BEST YET
Epoch 002: val_loss improved from 0.83895 to 0.64828; runtime 0:00:03; BEST YET
Epoch 003: val_loss improved from 0.64828 to 0.55773; runtime 0:00:03; BEST YET
…
