_________________________________________________________________
Layer (type)                 Output Shape              Param #   
=================================================================
input_layer (InputLayer)     (None, 20000)             0         
_________________________________________________________________
dropout_1 (Dropout)          (None, 20000)             0         
_________________________________________________________________
dense_1 (Dense)              (None, 128)               2560128   
_________________________________________________________________
dropout_2 (Dropout)          (None, 128)               0         
_________________________________________________________________
output_layer (Dense)         (None, 3)                 387       
=================================================================
Total params: 2,560,515
Trainable params: 2,560,515
Non-trainable params: 0
_________________________________________________________________


----- Fold 1 of 10 -----
Epoch 001: val_loss improved from inf to 0.78486; runtime 0:00:02; BEST YET
Epoch 002: val_loss improved from 0.78486 to 0.59475; runtime 0:00:02; BEST YET
Epoch 003: val_loss improved from 0.59475 to 0.48838; runtime 0:00:02; BEST YET
…
