_________________________________________________________________
Layer (type)                 Output Shape              Param #   
=================================================================
input_layer (InputLayer)     (None, 20000)             0         
_________________________________________________________________
dropout_1 (Dropout)          (None, 20000)             0         
_________________________________________________________________
dense_1 (Dense)              (None, 64)                1280064   
_________________________________________________________________
dropout_2 (Dropout)          (None, 64)                0         
_________________________________________________________________
output_layer (Dense)         (None, 3)                 195       
=================================================================
Total params: 1,280,259
Trainable params: 1,280,259
Non-trainable params: 0
_________________________________________________________________


----- Fold 1 of 10 -----
Epoch 001: val_loss improved from inf to 0.77241; runtime 0:00:02; BEST YET
Epoch 002: val_loss improved from 0.77241 to 0.55588; runtime 0:00:01; BEST YET
Epoch 003: val_loss improved from 0.55588 to 0.45815; runtime 0:00:01; BEST YET
…
