_________________________________________________________________
Layer (type)                 Output Shape              Param #   
=================================================================
input_layer (InputLayer)     (None, 128)               0         
_________________________________________________________________
embedding_1 (Embedding)      (None, 128, 300)          8329800   
_________________________________________________________________
conv1d_1 (Conv1D)            (None, 128, 64)           172864    
_________________________________________________________________
conv1d_2 (Conv1D)            (None, 128, 64)           36928     
_________________________________________________________________
max_pooling1d_1 (MaxPooling1 (None, 32, 64)            0         
_________________________________________________________________
conv1d_3 (Conv1D)            (None, 32, 64)            36928     
_________________________________________________________________
conv1d_4 (Conv1D)            (None, 32, 64)            36928     
_________________________________________________________________
max_pooling1d_2 (MaxPooling1 (None, 8, 64)             0         
_________________________________________________________________
flatten_1 (Flatten)          (None, 512)               0         
_________________________________________________________________
dense_1 (Dense)              (None, 64)                32832     
_________________________________________________________________
output_layer (Dense)         (None, 3)                 195       
=================================================================
Total params: 8,646,475
Trainable params: 316,675
Non-trainable params: 8,329,800
_________________________________________________________________


----- Fold 1 of 10 -----
Epoch 001: val_loss improved from inf to 0.68467; runtime 0:00:02; BEST YET
Epoch 002: val_loss improved from 0.68467 to 0.56127; runtime 0:00:01; BEST YET
…
