_________________________________________________________________
Layer (type)                 Output Shape              Param #   
=================================================================
input_layer (InputLayer)     (None, 128)               0         
_________________________________________________________________
embedding_1 (Embedding)      (None, 128, 300)          8329800   
_________________________________________________________________
conv1d_1 (Conv1D)            (None, 128, 300)          270300    
_________________________________________________________________
conv1d_2 (Conv1D)            (None, 128, 300)          270300    
_________________________________________________________________
max_pooling1d_1 (MaxPooling1 (None, 26, 300)           0         
_________________________________________________________________
dropout_1 (Dropout)          (None, 26, 300)           0         
_________________________________________________________________
conv1d_3 (Conv1D)            (None, 26, 300)           270300    
_________________________________________________________________
conv1d_4 (Conv1D)            (None, 26, 300)           270300    
_________________________________________________________________
max_pooling1d_2 (MaxPooling1 (None, 6, 300)            0         
_________________________________________________________________
dropout_2 (Dropout)          (None, 6, 300)            0         
_________________________________________________________________
conv1d_5 (Conv1D)            (None, 6, 300)            270300    
_________________________________________________________________
conv1d_6 (Conv1D)            (None, 6, 300)            270300    
_________________________________________________________________
max_pooling1d_3 (MaxPooling1 (None, 2, 300)            0         
_________________________________________________________________
dropout_3 (Dropout)          (None, 2, 300)            0         
_________________________________________________________________
flatten_1 (Flatten)          (None, 600)               0         
_________________________________________________________________
dense_1 (Dense)              (None, 300)               180300    
_________________________________________________________________
output_layer (Dense)         (None, 3)                 903       
=================================================================
Total params: 10,132,803
Trainable params: 1,803,003
Non-trainable params: 8,329,800
_________________________________________________________________


----- Fold 1 of 10 -----
Epoch 001: val_loss improved from inf to 0.63174; runtime 0:00:06; BEST YET
Epoch 002: val_loss did not improve from 0.63174; runtime 0:00:05
Epoch 003: val_loss did not improve from 0.63174; runtime 0:00:05
…
