_________________________________________________________________
Layer (type)                 Output Shape              Param #   
=================================================================
input_layer (InputLayer)     (None, 128)               0         
_________________________________________________________________
embedding_1 (Embedding)      (None, 128, 300)          8329800   
_________________________________________________________________
conv1d_1 (Conv1D)            (None, 128, 64)           57664     
_________________________________________________________________
max_pooling1d_1 (MaxPooling1 (None, 26, 64)            0         
_________________________________________________________________
flatten_1 (Flatten)          (None, 1664)              0         
_________________________________________________________________
dense_1 (Dense)              (None, 64)                106560    
_________________________________________________________________
dropout_1 (Dropout)          (None, 64)                0         
_________________________________________________________________
output_layer (Dense)         (None, 3)                 195       
=================================================================
Total params: 8,494,219
Trainable params: 164,419
Non-trainable params: 8,329,800
_________________________________________________________________


----- Fold 1 of 10 -----
Epoch 001: val_loss improved from inf to 0.52552; runtime 0:00:03; BEST YET
Epoch 002: val_loss improved from 0.52552 to 0.48544; runtime 0:00:03; BEST YET
…
