_________________________________________________________________
Layer (type)                 Output Shape              Param #   
=================================================================
input_layer (InputLayer)     (None, 128)               0         
_________________________________________________________________
embedding_1 (Embedding)      (None, 128, 300)          8329800   
_________________________________________________________________
conv1d_1 (Conv1D)            (None, 128, 64)           134464    
_________________________________________________________________
max_pooling1d_1 (MaxPooling1 (None, 43, 64)            0         
_________________________________________________________________
dropout_1 (Dropout)          (None, 43, 64)            0         
_________________________________________________________________
conv1d_2 (Conv1D)            (None, 43, 64)            28736     
_________________________________________________________________
max_pooling1d_2 (MaxPooling1 (None, 15, 64)            0         
_________________________________________________________________
dropout_2 (Dropout)          (None, 15, 64)            0         
_________________________________________________________________
flatten_1 (Flatten)          (None, 960)               0         
_________________________________________________________________
dense_1 (Dense)              (None, 64)                61504     
_________________________________________________________________
output_layer (Dense)         (None, 3)                 195       
=================================================================
Total params: 8,554,699
Trainable params: 224,899
Non-trainable params: 8,329,800
_________________________________________________________________


----- Fold 1 of 10 -----
Epoch 001: val_loss improved from inf to 0.66965; runtime 0:00:01; BEST YET
Epoch 002: val_loss improved from 0.66965 to 0.64430; runtime 0:00:01; BEST YET
…
