_________________________________________________________________
Layer (type)                 Output Shape              Param #   
=================================================================
input_layer (InputLayer)     (None, 128)               0         
_________________________________________________________________
embedding_1 (Embedding)      (None, 128, 300)          8329800   
_________________________________________________________________
conv1d_1 (Conv1D)            (None, 128, 128)          268928    
_________________________________________________________________
max_pooling1d_1 (MaxPooling1 (None, 32, 128)           0         
_________________________________________________________________
conv1d_2 (Conv1D)            (None, 32, 128)           114816    
_________________________________________________________________
max_pooling1d_2 (MaxPooling1 (None, 8, 128)            0         
_________________________________________________________________
conv1d_3 (Conv1D)            (None, 8, 128)            114816    
_________________________________________________________________
max_pooling1d_3 (MaxPooling1 (None, 2, 128)            0         
_________________________________________________________________
flatten_1 (Flatten)          (None, 256)               0         
_________________________________________________________________
dense_1 (Dense)              (None, 128)               32896     
_________________________________________________________________
output_layer (Dense)         (None, 3)                 387       
=================================================================
Total params: 8,861,643
Trainable params: 531,843
Non-trainable params: 8,329,800
_________________________________________________________________


----- Fold 1 of 10 -----
Epoch 001: val_loss improved from inf to 0.61652; runtime 0:00:02; BEST YET
Epoch 002: val_loss improved from 0.61652 to 0.53554; runtime 0:00:01; BEST YET
…
