_________________________________________________________________
Layer (type)                 Output Shape              Param #   
=================================================================
input_layer (InputLayer)     (None, 128)               0         
_________________________________________________________________
embedding_1 (Embedding)      (None, 128, 300)          8329800   
_________________________________________________________________
conv1d_1 (Conv1D)            (None, 128, 300)          270300    
_________________________________________________________________
max_pooling1d_1 (MaxPooling1 (None, 43, 300)           0         
_________________________________________________________________
conv1d_2 (Conv1D)            (None, 43, 300)           270300    
_________________________________________________________________
max_pooling1d_2 (MaxPooling1 (None, 15, 300)           0         
_________________________________________________________________
flatten_1 (Flatten)          (None, 4500)              0         
_________________________________________________________________
dense_1 (Dense)              (None, 300)               1350300   
_________________________________________________________________
output_layer (Dense)         (None, 3)                 903       
=================================================================
Total params: 10,221,603
Trainable params: 1,891,803
Non-trainable params: 8,329,800
_________________________________________________________________


----- Fold 1 of 10 -----
Epoch 001: val_loss improved from inf to 0.52206; runtime 0:00:02; BEST YET
Epoch 002: val_loss improved from 0.52206 to 0.47194; runtime 0:00:02; BEST YET
…
