_________________________________________________________________
Layer (type)                 Output Shape              Param #   
=================================================================
input_layer (InputLayer)     (None, 128)               0         
_________________________________________________________________
embedding_1 (Embedding)      (None, 128, 300)          8329800   
_________________________________________________________________
conv1d_1 (Conv1D)            (None, 128, 64)           134464    
_________________________________________________________________
conv1d_2 (Conv1D)            (None, 128, 64)           28736     
_________________________________________________________________
max_pooling1d_1 (MaxPooling1 (None, 64, 64)            0         
_________________________________________________________________
dropout_1 (Dropout)          (None, 64, 64)            0         
_________________________________________________________________
conv1d_3 (Conv1D)            (None, 64, 64)            28736     
_________________________________________________________________
conv1d_4 (Conv1D)            (None, 64, 64)            28736     
_________________________________________________________________
max_pooling1d_2 (MaxPooling1 (None, 32, 64)            0         
_________________________________________________________________
dropout_2 (Dropout)          (None, 32, 64)            0         
_________________________________________________________________
conv1d_5 (Conv1D)            (None, 32, 64)            28736     
_________________________________________________________________
conv1d_6 (Conv1D)            (None, 32, 64)            28736     
_________________________________________________________________
max_pooling1d_3 (MaxPooling1 (None, 16, 64)            0         
_________________________________________________________________
dropout_3 (Dropout)          (None, 16, 64)            0         
_________________________________________________________________
flatten_1 (Flatten)          (None, 1024)              0         
_________________________________________________________________
dense_1 (Dense)              (None, 64)                65600     
_________________________________________________________________
dropout_4 (Dropout)          (None, 64)                0         
_________________________________________________________________
output_layer (Dense)         (None, 3)                 195       
=================================================================
Total params: 8,673,739
Trainable params: 343,939
Non-trainable params: 8,329,800
_________________________________________________________________


----- Fold 1 of 10 -----
Epoch 001: val_loss improved from inf to 0.66790; runtime 0:00:04; BEST YET
Epoch 002: val_loss improved from 0.66790 to 0.56158; runtime 0:00:03; BEST YET
…
