_________________________________________________________________
Layer (type)                 Output Shape              Param #   
=================================================================
input_layer (InputLayer)     (None, 128)               0         
_________________________________________________________________
embedding_1 (Embedding)      (None, 128, 300)          8329800   
_________________________________________________________________
conv1d_1 (Conv1D)            (None, 128, 64)           172864    
_________________________________________________________________
max_pooling1d_1 (MaxPooling1 (None, 64, 64)            0         
_________________________________________________________________
dropout_1 (Dropout)          (None, 64, 64)            0         
_________________________________________________________________
conv1d_2 (Conv1D)            (None, 64, 64)            36928     
_________________________________________________________________
max_pooling1d_2 (MaxPooling1 (None, 32, 64)            0         
_________________________________________________________________
dropout_2 (Dropout)          (None, 32, 64)            0         
_________________________________________________________________
flatten_1 (Flatten)          (None, 2048)              0         
_________________________________________________________________
dense_1 (Dense)              (None, 64)                131136    
_________________________________________________________________
output_layer (Dense)         (None, 3)                 195       
=================================================================
Total params: 8,670,923
Trainable params: 341,123
Non-trainable params: 8,329,800
_________________________________________________________________


----- Fold 1 of 10 -----
Epoch 001: val_loss improved from inf to 0.74260; runtime 0:00:01; BEST YET
Epoch 002: val_loss improved from 0.74260 to 0.62132; runtime 0:00:01; BEST YET
…
