_________________________________________________________________
Layer (type)                 Output Shape              Param #   
=================================================================
input_layer (InputLayer)     (None, 128)               0         
_________________________________________________________________
embedding_1 (Embedding)      (None, 128, 300)          8329800   
_________________________________________________________________
conv1d_1 (Conv1D)            (None, 128, 256)          230656    
_________________________________________________________________
conv1d_2 (Conv1D)            (None, 128, 256)          196864    
_________________________________________________________________
max_pooling1d_1 (MaxPooling1 (None, 43, 256)           0         
_________________________________________________________________
conv1d_3 (Conv1D)            (None, 43, 256)           196864    
_________________________________________________________________
conv1d_4 (Conv1D)            (None, 43, 256)           196864    
_________________________________________________________________
max_pooling1d_2 (MaxPooling1 (None, 15, 256)           0         
_________________________________________________________________
conv1d_5 (Conv1D)            (None, 15, 256)           196864    
_________________________________________________________________
conv1d_6 (Conv1D)            (None, 15, 256)           196864    
_________________________________________________________________
max_pooling1d_3 (MaxPooling1 (None, 5, 256)            0         
_________________________________________________________________
flatten_1 (Flatten)          (None, 1280)              0         
_________________________________________________________________
dense_1 (Dense)              (None, 256)               327936    
_________________________________________________________________
dropout_1 (Dropout)          (None, 256)               0         
_________________________________________________________________
output_layer (Dense)         (None, 3)                 771       
=================================================================
Total params: 9,873,483
Trainable params: 1,543,683
Non-trainable params: 8,329,800
_________________________________________________________________


----- Fold 1 of 10 -----
Epoch 001: val_loss improved from inf to 0.59224; runtime 0:00:06; BEST YET
Epoch 002: val_loss improved from 0.59224 to 0.57127; runtime 0:00:05; BEST YET
…
