_________________________________________________________________
Layer (type)                 Output Shape              Param #   
=================================================================
input_layer (InputLayer)     (None, 128)               0         
_________________________________________________________________
embedding_1 (Embedding)      (None, 128, 300)          8329800   
_________________________________________________________________
conv1d_1 (Conv1D)            (None, 128, 128)          115328    
_________________________________________________________________
conv1d_2 (Conv1D)            (None, 128, 128)          49280     
_________________________________________________________________
max_pooling1d_1 (MaxPooling1 (None, 32, 128)           0         
_________________________________________________________________
conv1d_3 (Conv1D)            (None, 32, 128)           49280     
_________________________________________________________________
conv1d_4 (Conv1D)            (None, 32, 128)           49280     
_________________________________________________________________
max_pooling1d_2 (MaxPooling1 (None, 8, 128)            0         
_________________________________________________________________
flatten_1 (Flatten)          (None, 1024)              0         
_________________________________________________________________
dense_1 (Dense)              (None, 128)               131200    
_________________________________________________________________
output_layer (Dense)         (None, 3)                 387       
=================================================================
Total params: 8,724,555
Trainable params: 394,755
Non-trainable params: 8,329,800
_________________________________________________________________


----- Fold 1 of 10 -----
Epoch 001: val_loss improved from inf to 0.69846; runtime 0:00:02; BEST YET
Epoch 002: val_loss improved from 0.69846 to 0.52912; runtime 0:00:02; BEST YET
…
