_________________________________________________________________
Layer (type)                 Output Shape              Param #   
=================================================================
input_layer (InputLayer)     (None, 128)               0         
_________________________________________________________________
embedding_1 (Embedding)      (None, 128, 300)          8329800   
_________________________________________________________________
conv1d_1 (Conv1D)            (None, 128, 32)           67232     
_________________________________________________________________
conv1d_2 (Conv1D)            (None, 128, 32)           7200      
_________________________________________________________________
max_pooling1d_1 (MaxPooling1 (None, 26, 32)            0         
_________________________________________________________________
conv1d_3 (Conv1D)            (None, 26, 32)            7200      
_________________________________________________________________
conv1d_4 (Conv1D)            (None, 26, 32)            7200      
_________________________________________________________________
global_max_pooling1d_1 (Glob (None, 32)                0         
_________________________________________________________________
dropout_1 (Dropout)          (None, 32)                0         
_________________________________________________________________
output_layer (Dense)         (None, 3)                 99        
=================================================================
Total params: 8,418,731
Trainable params: 88,931
Non-trainable params: 8,329,800
_________________________________________________________________


----- Fold 1 of 10 -----
Epoch 001: val_loss improved from inf to 0.94765; runtime 0:00:01; BEST YET
Epoch 002: val_loss improved from 0.94765 to 0.84664; runtime 0:00:00; BEST YET
…
