_________________________________________________________________
Layer (type)                 Output Shape              Param #   
=================================================================
input_layer (InputLayer)     (None, 128)               0         
_________________________________________________________________
embedding_1 (Embedding)      (None, 128, 300)          8329800   
_________________________________________________________________
conv1d_1 (Conv1D)            (None, 128, 32)           48032     
_________________________________________________________________
max_pooling1d_1 (MaxPooling1 (None, 64, 32)            0         
_________________________________________________________________
dropout_1 (Dropout)          (None, 64, 32)            0         
_________________________________________________________________
conv1d_2 (Conv1D)            (None, 64, 32)            5152      
_________________________________________________________________
global_max_pooling1d_1 (Glob (None, 32)                0         
_________________________________________________________________
output_layer (Dense)         (None, 3)                 99        
=================================================================
Total params: 8,383,083
Trainable params: 53,283
Non-trainable params: 8,329,800
_________________________________________________________________


----- Fold 1 of 10 -----
Epoch 001: val_loss improved from inf to 0.64509; runtime 0:00:02; BEST YET
Epoch 002: val_loss improved from 0.64509 to 0.57546; runtime 0:00:01; BEST YET
…
