_________________________________________________________________
Layer (type)                 Output Shape              Param #   
=================================================================
input_layer (InputLayer)     (None, 128)               0         
_________________________________________________________________
embedding_1 (Embedding)      (None, 128, 300)          8329800   
_________________________________________________________________
conv1d_1 (Conv1D)            (None, 128, 128)          115328    
_________________________________________________________________
max_pooling1d_1 (MaxPooling1 (None, 43, 128)           0         
_________________________________________________________________
dropout_1 (Dropout)          (None, 43, 128)           0         
_________________________________________________________________
conv1d_2 (Conv1D)            (None, 43, 128)           49280     
_________________________________________________________________
max_pooling1d_2 (MaxPooling1 (None, 15, 128)           0         
_________________________________________________________________
dropout_2 (Dropout)          (None, 15, 128)           0         
_________________________________________________________________
conv1d_3 (Conv1D)            (None, 15, 128)           49280     
_________________________________________________________________
max_pooling1d_3 (MaxPooling1 (None, 5, 128)            0         
_________________________________________________________________
dropout_3 (Dropout)          (None, 5, 128)            0         
_________________________________________________________________
flatten_1 (Flatten)          (None, 640)               0         
_________________________________________________________________
dense_1 (Dense)              (None, 128)               82048     
_________________________________________________________________
dropout_4 (Dropout)          (None, 128)               0         
_________________________________________________________________
output_layer (Dense)         (None, 3)                 387       
=================================================================
Total params: 8,626,123
Trainable params: 296,323
Non-trainable params: 8,329,800
_________________________________________________________________


----- Fold 1 of 10 -----
Epoch 001: val_loss improved from inf to 0.83546; runtime 0:00:01; BEST YET
Epoch 002: val_loss improved from 0.83546 to 0.75604; runtime 0:00:01; BEST YET
…
