_________________________________________________________________
Layer (type)                 Output Shape              Param #   
=================================================================
input_layer (InputLayer)     (None, 128)               0         
_________________________________________________________________
embedding_1 (Embedding)      (None, 128, 300)          8329800   
_________________________________________________________________
conv1d_1 (Conv1D)            (None, 128, 64)           134464    
_________________________________________________________________
max_pooling1d_1 (MaxPooling1 (None, 26, 64)            0         
_________________________________________________________________
dropout_1 (Dropout)          (None, 26, 64)            0         
_________________________________________________________________
conv1d_2 (Conv1D)            (None, 26, 64)            28736     
_________________________________________________________________
max_pooling1d_2 (MaxPooling1 (None, 6, 64)             0         
_________________________________________________________________
dropout_2 (Dropout)          (None, 6, 64)             0         
_________________________________________________________________
conv1d_3 (Conv1D)            (None, 6, 64)             28736     
_________________________________________________________________
max_pooling1d_3 (MaxPooling1 (None, 2, 64)             0         
_________________________________________________________________
dropout_3 (Dropout)          (None, 2, 64)             0         
_________________________________________________________________
flatten_1 (Flatten)          (None, 128)               0         
_________________________________________________________________
dense_1 (Dense)              (None, 64)                8256      
_________________________________________________________________
dropout_4 (Dropout)          (None, 64)                0         
_________________________________________________________________
output_layer (Dense)         (None, 3)                 195       
=================================================================
Total params: 8,530,187
Trainable params: 200,387
Non-trainable params: 8,329,800
_________________________________________________________________


----- Fold 1 of 10 -----
Epoch 001: val_loss improved from inf to 0.59158; runtime 0:00:04; BEST YET
Epoch 002: val_loss improved from 0.59158 to 0.57347; runtime 0:00:04; BEST YET
…
