_________________________________________________________________
Layer (type)                 Output Shape              Param #   
=================================================================
input_layer (InputLayer)     (None, 128)               0         
_________________________________________________________________
embedding_1 (Embedding)      (None, 128, 300)          8329800   
_________________________________________________________________
conv1d_1 (Conv1D)            (None, 128, 64)           134464    
_________________________________________________________________
conv1d_2 (Conv1D)            (None, 128, 64)           28736     
_________________________________________________________________
max_pooling1d_1 (MaxPooling1 (None, 32, 64)            0         
_________________________________________________________________
conv1d_3 (Conv1D)            (None, 32, 64)            28736     
_________________________________________________________________
conv1d_4 (Conv1D)            (None, 32, 64)            28736     
_________________________________________________________________
max_pooling1d_2 (MaxPooling1 (None, 8, 64)             0         
_________________________________________________________________
conv1d_5 (Conv1D)            (None, 8, 64)             28736     
_________________________________________________________________
conv1d_6 (Conv1D)            (None, 8, 64)             28736     
_________________________________________________________________
max_pooling1d_3 (MaxPooling1 (None, 2, 64)             0         
_________________________________________________________________
conv1d_7 (Conv1D)            (None, 2, 64)             28736     
_________________________________________________________________
conv1d_8 (Conv1D)            (None, 2, 64)             28736     
_________________________________________________________________
global_max_pooling1d_1 (Glob (None, 64)                0         
_________________________________________________________________
output_layer (Dense)         (None, 3)                 195       
=================================================================
Total params: 8,665,611
Trainable params: 335,811
Non-trainable params: 8,329,800
_________________________________________________________________


----- Fold 1 of 10 -----
Epoch 001: val_loss improved from inf to 0.84857; runtime 0:00:05; BEST YET
Epoch 002: val_loss improved from 0.84857 to 0.57099; runtime 0:00:05; BEST YET
…
