_________________________________________________________________
Layer (type)                 Output Shape              Param #   
=================================================================
input_layer (InputLayer)     (None, 128)               0         
_________________________________________________________________
embedding_1 (Embedding)      (None, 128, 300)          8329800   
_________________________________________________________________
conv1d_1 (Conv1D)            (None, 128, 64)           96064     
_________________________________________________________________
max_pooling1d_1 (MaxPooling1 (None, 32, 64)            0         
_________________________________________________________________
dropout_1 (Dropout)          (None, 32, 64)            0         
_________________________________________________________________
conv1d_2 (Conv1D)            (None, 32, 64)            20544     
_________________________________________________________________
max_pooling1d_2 (MaxPooling1 (None, 8, 64)             0         
_________________________________________________________________
dropout_2 (Dropout)          (None, 8, 64)             0         
_________________________________________________________________
flatten_1 (Flatten)          (None, 512)               0         
_________________________________________________________________
dense_1 (Dense)              (None, 64)                32832     
_________________________________________________________________
output_layer (Dense)         (None, 3)                 195       
=================================================================
Total params: 8,479,435
Trainable params: 149,635
Non-trainable params: 8,329,800
_________________________________________________________________


----- Fold 1 of 10 -----
Epoch 001: val_loss improved from inf to 0.72494; runtime 0:00:02; BEST YET
Epoch 002: val_loss improved from 0.72494 to 0.62762; runtime 0:00:02; BEST YET
…
