_________________________________________________________________
Layer (type)                 Output Shape              Param #   
=================================================================
input_layer (InputLayer)     (None, 128)               0         
_________________________________________________________________
embedding_1 (Embedding)      (None, 128, 300)          8329800   
_________________________________________________________________
dropout_1 (Dropout)          (None, 128, 300)          0         
_________________________________________________________________
conv1d_1 (Conv1D)            (None, 128, 300)          450300    
_________________________________________________________________
global_max_pooling1d_1 (Glob (None, 300)               0         
_________________________________________________________________
dense_1 (Dense)              (None, 300)               90300     
_________________________________________________________________
dropout_2 (Dropout)          (None, 300)               0         
_________________________________________________________________
output_layer (Dense)         (None, 3)                 903       
=================================================================
Total params: 8,871,303
Trainable params: 541,503
Non-trainable params: 8,329,800
_________________________________________________________________


----- Fold 1 of 10 -----
Epoch 001: val_loss improved from inf to 0.60688; runtime 0:00:02; BEST YET
Epoch 002: val_loss improved from 0.60688 to 0.51112; runtime 0:00:02; BEST YET
…
