_________________________________________________________________
Layer (type)                 Output Shape              Param #   
=================================================================
input_layer (InputLayer)     (None, 128)               0         
_________________________________________________________________
embedding_1 (Embedding)      (None, 128, 300)          8329800   
_________________________________________________________________
conv1d_1 (Conv1D)            (None, 128, 256)          384256    
_________________________________________________________________
max_pooling1d_1 (MaxPooling1 (None, 43, 256)           0         
_________________________________________________________________
dropout_1 (Dropout)          (None, 43, 256)           0         
_________________________________________________________________
conv1d_2 (Conv1D)            (None, 43, 256)           327936    
_________________________________________________________________
global_max_pooling1d_1 (Glob (None, 256)               0         
_________________________________________________________________
output_layer (Dense)         (None, 3)                 771       
=================================================================
Total params: 9,042,763
Trainable params: 712,963
Non-trainable params: 8,329,800
_________________________________________________________________


----- Fold 1 of 10 -----
Epoch 001: val_loss improved from inf to 0.59699; runtime 0:00:02; BEST YET
Epoch 002: val_loss did not improve from 0.59699; runtime 0:00:02
Epoch 003: val_loss improved from 0.59699 to 0.46749; runtime 0:00:02; BEST YET
…
