_________________________________________________________________
Layer (type)                 Output Shape              Param #   
=================================================================
input_layer (InputLayer)     (None, 128)               0         
_________________________________________________________________
embedding_1 (Embedding)      (None, 128, 300)          8329800   
_________________________________________________________________
conv1d_1 (Conv1D)            (None, 128, 300)          450300    
_________________________________________________________________
conv1d_2 (Conv1D)            (None, 128, 300)          450300    
_________________________________________________________________
max_pooling1d_1 (MaxPooling1 (None, 43, 300)           0         
_________________________________________________________________
conv1d_3 (Conv1D)            (None, 43, 300)           450300    
_________________________________________________________________
conv1d_4 (Conv1D)            (None, 43, 300)           450300    
_________________________________________________________________
max_pooling1d_2 (MaxPooling1 (None, 15, 300)           0         
_________________________________________________________________
conv1d_5 (Conv1D)            (None, 15, 300)           450300    
_________________________________________________________________
conv1d_6 (Conv1D)            (None, 15, 300)           450300    
_________________________________________________________________
max_pooling1d_3 (MaxPooling1 (None, 5, 300)            0         
_________________________________________________________________
conv1d_7 (Conv1D)            (None, 5, 300)            450300    
_________________________________________________________________
conv1d_8 (Conv1D)            (None, 5, 300)            450300    
_________________________________________________________________
global_max_pooling1d_1 (Glob (None, 300)               0         
_________________________________________________________________
dropout_1 (Dropout)          (None, 300)               0         
_________________________________________________________________
output_layer (Dense)         (None, 3)                 903       
=================================================================
Total params: 11,933,103
Trainable params: 3,603,303
Non-trainable params: 8,329,800
_________________________________________________________________


----- Fold 1 of 10 -----
Epoch 001: val_loss improved from inf to 0.79390; runtime 0:00:06; BEST YET
Epoch 002: val_loss improved from 0.79390 to 0.50957; runtime 0:00:05; BEST YET
…
