_________________________________________________________________
Layer (type)                 Output Shape              Param #   
=================================================================
input_layer (InputLayer)     (None, 128)               0         
_________________________________________________________________
embedding_1 (Embedding)      (None, 128, 300)          8329800   
_________________________________________________________________
conv1d_1 (Conv1D)            (None, 128, 32)           28832     
_________________________________________________________________
max_pooling1d_1 (MaxPooling1 (None, 26, 32)            0         
_________________________________________________________________
dropout_1 (Dropout)          (None, 26, 32)            0         
_________________________________________________________________
conv1d_2 (Conv1D)            (None, 26, 32)            3104      
_________________________________________________________________
max_pooling1d_2 (MaxPooling1 (None, 6, 32)             0         
_________________________________________________________________
dropout_2 (Dropout)          (None, 6, 32)             0         
_________________________________________________________________
conv1d_3 (Conv1D)            (None, 6, 32)             3104      
_________________________________________________________________
max_pooling1d_3 (MaxPooling1 (None, 2, 32)             0         
_________________________________________________________________
dropout_3 (Dropout)          (None, 2, 32)             0         
_________________________________________________________________
flatten_1 (Flatten)          (None, 64)                0         
_________________________________________________________________
dense_1 (Dense)              (None, 32)                2080      
_________________________________________________________________
dropout_4 (Dropout)          (None, 32)                0         
_________________________________________________________________
output_layer (Dense)         (None, 3)                 99        
=================================================================
Total params: 8,367,019
Trainable params: 37,219
Non-trainable params: 8,329,800
_________________________________________________________________


----- Fold 1 of 10 -----
Epoch 001: val_loss improved from inf to 0.65361; runtime 0:00:05; BEST YET
Epoch 002: val_loss improved from 0.65361 to 0.53793; runtime 0:00:04; BEST YET
…
