_________________________________________________________________
Layer (type)                 Output Shape              Param #   
=================================================================
input_layer (InputLayer)     (None, 128)               0         
_________________________________________________________________
embedding_1 (Embedding)      (None, 128, 300)          8329800   
_________________________________________________________________
conv1d_1 (Conv1D)            (None, 128, 32)           28832     
_________________________________________________________________
max_pooling1d_1 (MaxPooling1 (None, 43, 32)            0         
_________________________________________________________________
conv1d_2 (Conv1D)            (None, 43, 32)            3104      
_________________________________________________________________
max_pooling1d_2 (MaxPooling1 (None, 15, 32)            0         
_________________________________________________________________
conv1d_3 (Conv1D)            (None, 15, 32)            3104      
_________________________________________________________________
max_pooling1d_3 (MaxPooling1 (None, 5, 32)             0         
_________________________________________________________________
flatten_1 (Flatten)          (None, 160)               0         
_________________________________________________________________
dense_1 (Dense)              (None, 32)                5152      
_________________________________________________________________
dropout_1 (Dropout)          (None, 32)                0         
_________________________________________________________________
output_layer (Dense)         (None, 3)                 99        
=================================================================
Total params: 8,370,091
Trainable params: 40,291
Non-trainable params: 8,329,800
_________________________________________________________________


----- Fold 1 of 10 -----
Epoch 001: val_loss improved from inf to 0.77886; runtime 0:00:01; BEST YET
Epoch 002: val_loss improved from 0.77886 to 0.61293; runtime 0:00:01; BEST YET
…
