_________________________________________________________________
Layer (type)                 Output Shape              Param #   
=================================================================
input_layer (InputLayer)     (None, 128)               0         
_________________________________________________________________
embedding_1 (Embedding)      (None, 128, 300)          8329800   
_________________________________________________________________
conv1d_1 (Conv1D)            (None, 128, 256)          691456    
_________________________________________________________________
conv1d_2 (Conv1D)            (None, 128, 256)          590080    
_________________________________________________________________
max_pooling1d_1 (MaxPooling1 (None, 64, 256)           0         
_________________________________________________________________
dropout_1 (Dropout)          (None, 64, 256)           0         
_________________________________________________________________
conv1d_3 (Conv1D)            (None, 64, 256)           590080    
_________________________________________________________________
conv1d_4 (Conv1D)            (None, 64, 256)           590080    
_________________________________________________________________
max_pooling1d_2 (MaxPooling1 (None, 32, 256)           0         
_________________________________________________________________
dropout_2 (Dropout)          (None, 32, 256)           0         
_________________________________________________________________
conv1d_5 (Conv1D)            (None, 32, 256)           590080    
_________________________________________________________________
conv1d_6 (Conv1D)            (None, 32, 256)           590080    
_________________________________________________________________
max_pooling1d_3 (MaxPooling1 (None, 16, 256)           0         
_________________________________________________________________
dropout_3 (Dropout)          (None, 16, 256)           0         
_________________________________________________________________
conv1d_7 (Conv1D)            (None, 16, 256)           590080    
_________________________________________________________________
conv1d_8 (Conv1D)            (None, 16, 256)           590080    
_________________________________________________________________
global_average_pooling1d_1 ( (None, 256)               0         
_________________________________________________________________
output_layer (Dense)         (None, 3)                 771       
=================================================================
Total params: 13,152,587
Trainable params: 4,822,787
Non-trainable params: 8,329,800
_________________________________________________________________


----- Fold 1 of 10 -----
Epoch 001: val_loss improved from inf to 0.88084; runtime 0:00:05; BEST YET
Epoch 002: val_loss improved from 0.88084 to 0.80367; runtime 0:00:04; BEST YET
…
