_________________________________________________________________
Layer (type)                 Output Shape              Param #   
=================================================================
input_layer (InputLayer)     (None, 128)               0         
_________________________________________________________________
embedding_1 (Embedding)      (None, 128, 300)          8329800   
_________________________________________________________________
conv1d_1 (Conv1D)            (None, 128, 256)          537856    
_________________________________________________________________
conv1d_2 (Conv1D)            (None, 128, 256)          459008    
_________________________________________________________________
max_pooling1d_1 (MaxPooling1 (None, 64, 256)           0         
_________________________________________________________________
conv1d_3 (Conv1D)            (None, 64, 256)           459008    
_________________________________________________________________
conv1d_4 (Conv1D)            (None, 64, 256)           459008    
_________________________________________________________________
max_pooling1d_2 (MaxPooling1 (None, 32, 256)           0         
_________________________________________________________________
conv1d_5 (Conv1D)            (None, 32, 256)           459008    
_________________________________________________________________
conv1d_6 (Conv1D)            (None, 32, 256)           459008    
_________________________________________________________________
max_pooling1d_3 (MaxPooling1 (None, 16, 256)           0         
_________________________________________________________________
conv1d_7 (Conv1D)            (None, 16, 256)           459008    
_________________________________________________________________
conv1d_8 (Conv1D)            (None, 16, 256)           459008    
_________________________________________________________________
global_max_pooling1d_1 (Glob (None, 256)               0         
_________________________________________________________________
output_layer (Dense)         (None, 3)                 771       
=================================================================
Total params: 12,081,483
Trainable params: 3,751,683
Non-trainable params: 8,329,800
_________________________________________________________________


----- Fold 1 of 10 -----
Epoch 001: val_loss improved from inf to 0.90442; runtime 0:00:06; BEST YET
Epoch 002: val_loss improved from 0.90442 to 0.56953; runtime 0:00:05; BEST YET
…
