_________________________________________________________________
Layer (type)                 Output Shape              Param #   
=================================================================
input_layer (InputLayer)     (None, 128)               0         
_________________________________________________________________
embedding_1 (Embedding)      (None, 128, 300)          8329800   
_________________________________________________________________
conv1d_1 (Conv1D)            (None, 128, 32)           48032     
_________________________________________________________________
max_pooling1d_1 (MaxPooling1 (None, 32, 32)            0         
_________________________________________________________________
dropout_1 (Dropout)          (None, 32, 32)            0         
_________________________________________________________________
conv1d_2 (Conv1D)            (None, 32, 32)            5152      
_________________________________________________________________
max_pooling1d_2 (MaxPooling1 (None, 8, 32)             0         
_________________________________________________________________
dropout_2 (Dropout)          (None, 8, 32)             0         
_________________________________________________________________
conv1d_3 (Conv1D)            (None, 8, 32)             5152      
_________________________________________________________________
max_pooling1d_3 (MaxPooling1 (None, 2, 32)             0         
_________________________________________________________________
dropout_3 (Dropout)          (None, 2, 32)             0         
_________________________________________________________________
conv1d_4 (Conv1D)            (None, 2, 32)             5152      
_________________________________________________________________
global_average_pooling1d_1 ( (None, 32)                0         
_________________________________________________________________
output_layer (Dense)         (None, 3)                 99        
=================================================================
Total params: 8,393,387
Trainable params: 63,587
Non-trainable params: 8,329,800
_________________________________________________________________


----- Fold 1 of 10 -----
Epoch 001: val_loss improved from inf to 0.69100; runtime 0:00:05; BEST YET
Epoch 002: val_loss improved from 0.69100 to 0.56784; runtime 0:00:04; BEST YET
…
