_________________________________________________________________
Layer (type)                 Output Shape              Param #   
=================================================================
input_layer (InputLayer)     (None, 128)               0         
_________________________________________________________________
embedding_1 (Embedding)      (None, 128, 300)          8329800   
_________________________________________________________________
dropout_1 (Dropout)          (None, 128, 300)          0         
_________________________________________________________________
conv1d_1 (Conv1D)            (None, 128, 128)          115328    
_________________________________________________________________
global_max_pooling1d_1 (Glob (None, 128)               0         
_________________________________________________________________
dense_1 (Dense)              (None, 128)               16512     
_________________________________________________________________
dropout_2 (Dropout)          (None, 128)               0         
_________________________________________________________________
output_layer (Dense)         (None, 3)                 387       
=================================================================
Total params: 8,462,027
Trainable params: 132,227
Non-trainable params: 8,329,800
_________________________________________________________________


----- Fold 1 of 10 -----
Epoch 001: val_loss improved from inf to 0.88130; runtime 0:00:01; BEST YET
Epoch 002: val_loss improved from 0.88130 to 0.73346; runtime 0:00:00; BEST YET
…
