_________________________________________________________________
Layer (type)                 Output Shape              Param #   
=================================================================
input_layer (InputLayer)     (None, 128)               0         
_________________________________________________________________
embedding_1 (Embedding)      (None, 128, 300)          8329800   
_________________________________________________________________
conv1d_1 (Conv1D)            (None, 128, 256)          537856    
_________________________________________________________________
max_pooling1d_1 (MaxPooling1 (None, 64, 256)           0         
_________________________________________________________________
flatten_1 (Flatten)          (None, 16384)             0         
_________________________________________________________________
dense_1 (Dense)              (None, 256)               4194560   
_________________________________________________________________
dropout_1 (Dropout)          (None, 256)               0         
_________________________________________________________________
output_layer (Dense)         (None, 3)                 771       
=================================================================
Total params: 13,062,987
Trainable params: 4,733,187
Non-trainable params: 8,329,800
_________________________________________________________________


----- Fold 1 of 10 -----
Epoch 001: val_loss improved from inf to 0.57992; runtime 0:00:02; BEST YET
Epoch 002: val_loss did not improve from 0.57992; runtime 0:00:01
Epoch 003: val_loss did not improve from 0.57992; runtime 0:00:01
…
