_________________________________________________________________
Layer (type)                 Output Shape              Param #   
=================================================================
input_layer (InputLayer)     (None, 128)               0         
_________________________________________________________________
embedding_1 (Embedding)      (None, 128, 300)          8329800   
_________________________________________________________________
conv1d_1 (Conv1D)            (None, 128, 256)          537856    
_________________________________________________________________
max_pooling1d_1 (MaxPooling1 (None, 43, 256)           0         
_________________________________________________________________
dropout_1 (Dropout)          (None, 43, 256)           0         
_________________________________________________________________
conv1d_2 (Conv1D)            (None, 43, 256)           459008    
_________________________________________________________________
max_pooling1d_2 (MaxPooling1 (None, 15, 256)           0         
_________________________________________________________________
dropout_2 (Dropout)          (None, 15, 256)           0         
_________________________________________________________________
conv1d_3 (Conv1D)            (None, 15, 256)           459008    
_________________________________________________________________
max_pooling1d_3 (MaxPooling1 (None, 5, 256)            0         
_________________________________________________________________
dropout_3 (Dropout)          (None, 5, 256)            0         
_________________________________________________________________
conv1d_4 (Conv1D)            (None, 5, 256)            459008    
_________________________________________________________________
global_average_pooling1d_1 ( (None, 256)               0         
_________________________________________________________________
dropout_4 (Dropout)          (None, 256)               0         
_________________________________________________________________
output_layer (Dense)         (None, 3)                 771       
=================================================================
Total params: 10,245,451
Trainable params: 1,915,651
Non-trainable params: 8,329,800
_________________________________________________________________


----- Fold 1 of 10 -----
Epoch 001: val_loss improved from inf to 0.78890; runtime 0:00:03; BEST YET
Epoch 002: val_loss improved from 0.78890 to 0.72757; runtime 0:00:02; BEST YET
…
