_________________________________________________________________
Layer (type)                 Output Shape              Param #   
=================================================================
input_layer (InputLayer)     (None, 128)               0         
_________________________________________________________________
embedding_1 (Embedding)      (None, 128, 300)          8329800   
_________________________________________________________________
conv1d_1 (Conv1D)            (None, 128, 256)          384256    
_________________________________________________________________
max_pooling1d_1 (MaxPooling1 (None, 64, 256)           0         
_________________________________________________________________
dropout_1 (Dropout)          (None, 64, 256)           0         
_________________________________________________________________
conv1d_2 (Conv1D)            (None, 64, 256)           327936    
_________________________________________________________________
max_pooling1d_2 (MaxPooling1 (None, 32, 256)           0         
_________________________________________________________________
dropout_2 (Dropout)          (None, 32, 256)           0         
_________________________________________________________________
flatten_1 (Flatten)          (None, 8192)              0         
_________________________________________________________________
dense_1 (Dense)              (None, 256)               2097408   
_________________________________________________________________
dropout_3 (Dropout)          (None, 256)               0         
_________________________________________________________________
output_layer (Dense)         (None, 3)                 771       
=================================================================
Total params: 11,140,171
Trainable params: 2,810,371
Non-trainable params: 8,329,800
_________________________________________________________________


----- Fold 1 of 10 -----
Epoch 001: val_loss improved from inf to 0.52166; runtime 0:00:04; BEST YET
Epoch 002: val_loss did not improve from 0.52166; runtime 0:00:04
Epoch 003: val_loss did not improve from 0.52166; runtime 0:00:04
…
