_________________________________________________________________
Layer (type)                 Output Shape              Param #   
=================================================================
input_layer (InputLayer)     (None, 128)               0         
_________________________________________________________________
embedding_1 (Embedding)      (None, 128, 300)          8329800   
_________________________________________________________________
conv1d_1 (Conv1D)            (None, 128, 300)          810300    
_________________________________________________________________
max_pooling1d_1 (MaxPooling1 (None, 32, 300)           0         
_________________________________________________________________
flatten_1 (Flatten)          (None, 9600)              0         
_________________________________________________________________
dense_1 (Dense)              (None, 300)               2880300   
_________________________________________________________________
output_layer (Dense)         (None, 3)                 903       
=================================================================
Total params: 12,021,303
Trainable params: 3,691,503
Non-trainable params: 8,329,800
_________________________________________________________________


----- Fold 1 of 10 -----
Epoch 001: val_loss improved from inf to 0.78014; runtime 0:00:02; BEST YET
Epoch 002: val_loss improved from 0.78014 to 0.53335; runtime 0:00:02; BEST YET
…
