_________________________________________________________________
Layer (type)                 Output Shape              Param #   
=================================================================
input_layer (InputLayer)     (None, 128)               0         
_________________________________________________________________
embedding_61 (Embedding)     (None, 128, 300)          8302800   
_________________________________________________________________
conv1d_101 (Conv1D)          (None, 128, 32)           86432     
_________________________________________________________________
conv1d_102 (Conv1D)          (None, 128, 32)           9248      
_________________________________________________________________
max_pooling1d_71 (MaxPooling (None, 43, 32)            0         
_________________________________________________________________
conv1d_103 (Conv1D)          (None, 43, 32)            9248      
_________________________________________________________________
conv1d_104 (Conv1D)          (None, 43, 32)            9248      
_________________________________________________________________
max_pooling1d_72 (MaxPooling (None, 15, 32)            0         
_________________________________________________________________
conv1d_105 (Conv1D)          (None, 15, 32)            9248      
_________________________________________________________________
conv1d_106 (Conv1D)          (None, 15, 32)            9248      
_________________________________________________________________
global_max_pooling1d_21 (Glo (None, 32)                0         
_________________________________________________________________
output_layer (Dense)         (None, 3)                 99        
=================================================================
Total params: 8,435,571
Trainable params: 132,771
Non-trainable params: 8,302,800
_________________________________________________________________


----- Fold 1 of 10 -----
Epoch 001: val_loss improved from inf to 0.64692; runtime 0:00:09; BEST YET
Epoch 002: val_loss improved from 0.64692 to 0.63302; runtime 0:00:05; BEST YET
…
