_________________________________________________________________
Layer (type)                 Output Shape              Param #   
=================================================================
input_layer (InputLayer)     (None, 128)               0         
_________________________________________________________________
embedding_1 (Embedding)      (None, 128, 300)          8302800   
_________________________________________________________________
conv1d_1 (Conv1D)            (None, 128, 32)           67232     
_________________________________________________________________
conv1d_2 (Conv1D)            (None, 128, 32)           7200      
_________________________________________________________________
max_pooling1d_1 (MaxPooling1 (None, 64, 32)            0         
_________________________________________________________________
dropout_1 (Dropout)          (None, 64, 32)            0         
_________________________________________________________________
conv1d_3 (Conv1D)            (None, 64, 32)            7200      
_________________________________________________________________
conv1d_4 (Conv1D)            (None, 64, 32)            7200      
_________________________________________________________________
max_pooling1d_2 (MaxPooling1 (None, 32, 32)            0         
_________________________________________________________________
dropout_2 (Dropout)          (None, 32, 32)            0         
_________________________________________________________________
flatten_1 (Flatten)          (None, 1024)              0         
_________________________________________________________________
dense_1 (Dense)              (None, 32)                32800     
_________________________________________________________________
dropout_3 (Dropout)          (None, 32)                0         
_________________________________________________________________
output_layer (Dense)         (None, 3)                 99        
=================================================================
Total params: 8,424,531
Trainable params: 121,731
Non-trainable params: 8,302,800
_________________________________________________________________


----- Fold 1 of 10 -----
Epoch 001: val_loss improved from inf to 0.94369; runtime 0:00:02; BEST YET
Epoch 002: val_loss improved from 0.94369 to 0.69605; runtime 0:00:00; BEST YET
…
