_________________________________________________________________
Layer (type)                 Output Shape              Param #   
=================================================================
input_layer (InputLayer)     (None, 128)               0         
_________________________________________________________________
embedding_1 (Embedding)      (None, 128, 300)          8302800   
_________________________________________________________________
conv1d_1 (Conv1D)            (None, 128, 256)          230656    
_________________________________________________________________
conv1d_2 (Conv1D)            (None, 128, 256)          196864    
_________________________________________________________________
max_pooling1d_1 (MaxPooling1 (None, 43, 256)           0         
_________________________________________________________________
dropout_1 (Dropout)          (None, 43, 256)           0         
_________________________________________________________________
conv1d_3 (Conv1D)            (None, 43, 256)           196864    
_________________________________________________________________
conv1d_4 (Conv1D)            (None, 43, 256)           196864    
_________________________________________________________________
max_pooling1d_2 (MaxPooling1 (None, 15, 256)           0         
_________________________________________________________________
dropout_2 (Dropout)          (None, 15, 256)           0         
_________________________________________________________________
conv1d_5 (Conv1D)            (None, 15, 256)           196864    
_________________________________________________________________
conv1d_6 (Conv1D)            (None, 15, 256)           196864    
_________________________________________________________________
global_max_pooling1d_1 (Glob (None, 256)               0         
_________________________________________________________________
dropout_3 (Dropout)          (None, 256)               0         
_________________________________________________________________
output_layer (Dense)         (None, 3)                 771       
=================================================================
Total params: 9,518,547
Trainable params: 1,215,747
Non-trainable params: 8,302,800
_________________________________________________________________


----- Fold 1 of 10 -----
Epoch 001: val_loss improved from inf to 0.95459; runtime 0:00:03; BEST YET
Epoch 002: val_loss improved from 0.95459 to 0.69438; runtime 0:00:02; BEST YET
…
