_________________________________________________________________
Layer (type)                 Output Shape              Param #   
=================================================================
input_layer (InputLayer)     (None, 128)               0         
_________________________________________________________________
embedding_91 (Embedding)     (None, 128, 300)          8302800   
_________________________________________________________________
conv1d_251 (Conv1D)          (None, 128, 300)          810300    
_________________________________________________________________
conv1d_252 (Conv1D)          (None, 128, 300)          810300    
_________________________________________________________________
max_pooling1d_121 (MaxPoolin (None, 64, 300)           0         
_________________________________________________________________
flatten_41 (Flatten)         (None, 19200)             0         
_________________________________________________________________
dense_61 (Dense)             (None, 300)               5760300   
_________________________________________________________________
dropout_141 (Dropout)        (None, 300)               0         
_________________________________________________________________
output_layer (Dense)         (None, 3)                 903       
=================================================================
Total params: 15,684,603
Trainable params: 7,381,803
Non-trainable params: 8,302,800
_________________________________________________________________


----- Fold 1 of 10 -----
Epoch 001: val_loss improved from inf to 0.72131; runtime 0:00:10; BEST YET
Epoch 002: val_loss did not improve from 0.72131; runtime 0:00:04
Epoch 003: val_loss did not improve from 0.72131; runtime 0:00:04
…
