_________________________________________________________________
Layer (type)                 Output Shape              Param #   
=================================================================
input_layer (InputLayer)     (None, 128)               0         
_________________________________________________________________
embedding_1 (Embedding)      (None, 128, 300)          8302800   
_________________________________________________________________
conv1d_1 (Conv1D)            (None, 128, 32)           86432     
_________________________________________________________________
max_pooling1d_1 (MaxPooling1 (None, 26, 32)            0         
_________________________________________________________________
dropout_1 (Dropout)          (None, 26, 32)            0         
_________________________________________________________________
conv1d_2 (Conv1D)            (None, 26, 32)            9248      
_________________________________________________________________
max_pooling1d_2 (MaxPooling1 (None, 6, 32)             0         
_________________________________________________________________
dropout_2 (Dropout)          (None, 6, 32)             0         
_________________________________________________________________
flatten_1 (Flatten)          (None, 192)               0         
_________________________________________________________________
dense_1 (Dense)              (None, 32)                6176      
_________________________________________________________________
dropout_3 (Dropout)          (None, 32)                0         
_________________________________________________________________
output_layer (Dense)         (None, 3)                 99        
=================================================================
Total params: 8,404,755
Trainable params: 101,955
Non-trainable params: 8,302,800
_________________________________________________________________


----- Fold 1 of 10 -----
Epoch 001: val_loss improved from inf to 0.88772; runtime 0:00:01; BEST YET
Epoch 002: val_loss improved from 0.88772 to 0.69263; runtime 0:00:01; BEST YET
…
