_________________________________________________________________
Layer (type)                 Output Shape              Param #   
=================================================================
input_layer (InputLayer)     (None, 128)               0         
_________________________________________________________________
embedding_1 (Embedding)      (None, 128, 300)          8302800   
_________________________________________________________________
conv1d_1 (Conv1D)            (None, 128, 256)          230656    
_________________________________________________________________
conv1d_2 (Conv1D)            (None, 128, 256)          196864    
_________________________________________________________________
max_pooling1d_1 (MaxPooling1 (None, 32, 256)           0         
_________________________________________________________________
conv1d_3 (Conv1D)            (None, 32, 256)           196864    
_________________________________________________________________
conv1d_4 (Conv1D)            (None, 32, 256)           196864    
_________________________________________________________________
max_pooling1d_2 (MaxPooling1 (None, 8, 256)            0         
_________________________________________________________________
conv1d_5 (Conv1D)            (None, 8, 256)            196864    
_________________________________________________________________
conv1d_6 (Conv1D)            (None, 8, 256)            196864    
_________________________________________________________________
max_pooling1d_3 (MaxPooling1 (None, 2, 256)            0         
_________________________________________________________________
flatten_1 (Flatten)          (None, 512)               0         
_________________________________________________________________
dense_1 (Dense)              (None, 256)               131328    
_________________________________________________________________
output_layer (Dense)         (None, 3)                 771       
=================================================================
Total params: 9,649,875
Trainable params: 1,347,075
Non-trainable params: 8,302,800
_________________________________________________________________


----- Fold 1 of 10 -----
Epoch 001: val_loss improved from inf to 0.63671; runtime 0:00:06; BEST YET
Epoch 002: val_loss improved from 0.63671 to 0.50054; runtime 0:00:05; BEST YET
…
