_________________________________________________________________
Layer (type)                 Output Shape              Param #   
=================================================================
input_layer (InputLayer)     (None, 128)               0         
_________________________________________________________________
embedding_181 (Embedding)    (None, 128, 300)          8302800   
_________________________________________________________________
dropout_211 (Dropout)        (None, 128, 300)          0         
_________________________________________________________________
conv1d_581 (Conv1D)          (None, 128, 64)           172864    
_________________________________________________________________
global_max_pooling1d_81 (Glo (None, 64)                0         
_________________________________________________________________
dense_101 (Dense)            (None, 64)                4160      
_________________________________________________________________
dropout_212 (Dropout)        (None, 64)                0         
_________________________________________________________________
output_layer (Dense)         (None, 3)                 195       
=================================================================
Total params: 8,480,019
Trainable params: 177,219
Non-trainable params: 8,302,800
_________________________________________________________________


----- Fold 1 of 10 -----
Epoch 001: val_loss improved from inf to 0.74535; runtime 0:00:12; BEST YET
Epoch 002: val_loss improved from 0.74535 to 0.67787; runtime 0:00:03; BEST YET
…
