_________________________________________________________________
Layer (type)                 Output Shape              Param #   
=================================================================
input_layer (InputLayer)     (None, 128)               0         
_________________________________________________________________
embedding_1 (Embedding)      (None, 128, 300)          8302800   
_________________________________________________________________
conv1d_1 (Conv1D)            (None, 128, 32)           28832     
_________________________________________________________________
conv1d_2 (Conv1D)            (None, 128, 32)           3104      
_________________________________________________________________
max_pooling1d_1 (MaxPooling1 (None, 64, 32)            0         
_________________________________________________________________
dropout_1 (Dropout)          (None, 64, 32)            0         
_________________________________________________________________
conv1d_3 (Conv1D)            (None, 64, 32)            3104      
_________________________________________________________________
conv1d_4 (Conv1D)            (None, 64, 32)            3104      
_________________________________________________________________
global_max_pooling1d_1 (Glob (None, 32)                0         
_________________________________________________________________
dropout_2 (Dropout)          (None, 32)                0         
_________________________________________________________________
output_layer (Dense)         (None, 3)                 99        
=================================================================
Total params: 8,341,043
Trainable params: 38,243
Non-trainable params: 8,302,800
_________________________________________________________________


----- Fold 1 of 10 -----
Epoch 001: val_loss improved from inf to 0.69604; runtime 0:00:03; BEST YET
Epoch 002: val_loss improved from 0.69604 to 0.64210; runtime 0:00:02; BEST YET
…
