_________________________________________________________________
Layer (type)                 Output Shape              Param #   
=================================================================
input_layer (InputLayer)     (None, 128)               0         
_________________________________________________________________
embedding_1 (Embedding)      (None, 128, 300)          8302800   
_________________________________________________________________
conv1d_1 (Conv1D)            (None, 128, 64)           172864    
_________________________________________________________________
conv1d_2 (Conv1D)            (None, 128, 64)           36928     
_________________________________________________________________
max_pooling1d_1 (MaxPooling1 (None, 64, 64)            0         
_________________________________________________________________
dropout_1 (Dropout)          (None, 64, 64)            0         
_________________________________________________________________
conv1d_3 (Conv1D)            (None, 64, 64)            36928     
_________________________________________________________________
conv1d_4 (Conv1D)            (None, 64, 64)            36928     
_________________________________________________________________
max_pooling1d_2 (MaxPooling1 (None, 32, 64)            0         
_________________________________________________________________
dropout_2 (Dropout)          (None, 32, 64)            0         
_________________________________________________________________
conv1d_5 (Conv1D)            (None, 32, 64)            36928     
_________________________________________________________________
conv1d_6 (Conv1D)            (None, 32, 64)            36928     
_________________________________________________________________
global_max_pooling1d_1 (Glob (None, 64)                0         
_________________________________________________________________
output_layer (Dense)         (None, 3)                 195       
=================================================================
Total params: 8,660,499
Trainable params: 357,699
Non-trainable params: 8,302,800
_________________________________________________________________


----- Fold 1 of 10 -----
Epoch 001: val_loss improved from inf to 0.63547; runtime 0:00:05; BEST YET
Epoch 002: val_loss improved from 0.63547 to 0.61340; runtime 0:00:04; BEST YET
…
