_________________________________________________________________
Layer (type)                 Output Shape              Param #   
=================================================================
input_layer (InputLayer)     (None, 128)               0         
_________________________________________________________________
embedding_151 (Embedding)    (None, 128, 300)          8302800   
_________________________________________________________________
conv1d_451 (Conv1D)          (None, 128, 32)           67232     
_________________________________________________________________
conv1d_452 (Conv1D)          (None, 128, 32)           7200      
_________________________________________________________________
max_pooling1d_201 (MaxPoolin (None, 64, 32)            0         
_________________________________________________________________
dropout_181 (Dropout)        (None, 64, 32)            0         
_________________________________________________________________
conv1d_453 (Conv1D)          (None, 64, 32)            7200      
_________________________________________________________________
conv1d_454 (Conv1D)          (None, 64, 32)            7200      
_________________________________________________________________
global_max_pooling1d_61 (Glo (None, 32)                0         
_________________________________________________________________
output_layer (Dense)         (None, 3)                 99        
=================================================================
Total params: 8,391,731
Trainable params: 88,931
Non-trainable params: 8,302,800
_________________________________________________________________


----- Fold 1 of 10 -----
Epoch 001: val_loss improved from inf to 0.91951; runtime 0:00:09; BEST YET
Epoch 002: val_loss improved from 0.91951 to 0.74460; runtime 0:00:01; BEST YET
…
