_________________________________________________________________
Layer (type)                 Output Shape              Param #   
=================================================================
input_layer (InputLayer)     (None, 128)               0         
_________________________________________________________________
embedding_121 (Embedding)    (None, 128, 300)          8302800   
_________________________________________________________________
conv1d_311 (Conv1D)          (None, 128, 300)          630300    
_________________________________________________________________
conv1d_312 (Conv1D)          (None, 128, 300)          630300    
_________________________________________________________________
max_pooling1d_151 (MaxPoolin (None, 32, 300)           0         
_________________________________________________________________
conv1d_313 (Conv1D)          (None, 32, 300)           630300    
_________________________________________________________________
conv1d_314 (Conv1D)          (None, 32, 300)           630300    
_________________________________________________________________
max_pooling1d_152 (MaxPoolin (None, 8, 300)            0         
_________________________________________________________________
conv1d_315 (Conv1D)          (None, 8, 300)            630300    
_________________________________________________________________
conv1d_316 (Conv1D)          (None, 8, 300)            630300    
_________________________________________________________________
max_pooling1d_153 (MaxPoolin (None, 2, 300)            0         
_________________________________________________________________
conv1d_317 (Conv1D)          (None, 2, 300)            630300    
_________________________________________________________________
conv1d_318 (Conv1D)          (None, 2, 300)            630300    
_________________________________________________________________
global_max_pooling1d_41 (Glo (None, 300)               0         
_________________________________________________________________
dropout_171 (Dropout)        (None, 300)               0         
_________________________________________________________________
output_layer (Dense)         (None, 3)                 903       
=================================================================
Total params: 13,346,103
Trainable params: 5,043,303
Non-trainable params: 8,302,800
_________________________________________________________________


----- Fold 1 of 10 -----
Epoch 001: val_loss improved from inf to 0.84356; runtime 0:00:10; BEST YET
Epoch 002: val_loss improved from 0.84356 to 0.60254; runtime 0:00:03; BEST YET
…
