_________________________________________________________________
Layer (type)                 Output Shape              Param #   
=================================================================
input_layer (InputLayer)     (None, 128)               0         
_________________________________________________________________
embedding_171 (Embedding)    (None, 128, 300)          8302800   
_________________________________________________________________
conv1d_551 (Conv1D)          (None, 128, 64)           172864    
_________________________________________________________________
max_pooling1d_241 (MaxPoolin (None, 64, 64)            0         
_________________________________________________________________
conv1d_552 (Conv1D)          (None, 64, 64)            36928     
_________________________________________________________________
max_pooling1d_242 (MaxPoolin (None, 32, 64)            0         
_________________________________________________________________
conv1d_553 (Conv1D)          (None, 32, 64)            36928     
_________________________________________________________________
global_max_pooling1d_71 (Glo (None, 64)                0         
_________________________________________________________________
dropout_201 (Dropout)        (None, 64)                0         
_________________________________________________________________
output_layer (Dense)         (None, 3)                 195       
=================================================================
Total params: 8,549,715
Trainable params: 246,915
Non-trainable params: 8,302,800
_________________________________________________________________


----- Fold 1 of 10 -----
Epoch 001: val_loss improved from inf to 0.60977; runtime 0:00:12; BEST YET
Epoch 002: val_loss improved from 0.60977 to 0.54665; runtime 0:00:03; BEST YET
…
