_________________________________________________________________
Layer (type)                 Output Shape              Param #   
=================================================================
input_layer (InputLayer)     (None, 128)               0         
_________________________________________________________________
embedding_1 (Embedding)      (None, 128, 300)          8302800   
_________________________________________________________________
conv1d_1 (Conv1D)            (None, 128, 128)          192128    
_________________________________________________________________
max_pooling1d_1 (MaxPooling1 (None, 43, 128)           0         
_________________________________________________________________
flatten_1 (Flatten)          (None, 5504)              0         
_________________________________________________________________
dense_1 (Dense)              (None, 128)               704640    
_________________________________________________________________
output_layer (Dense)         (None, 3)                 387       
=================================================================
Total params: 9,199,955
Trainable params: 897,155
Non-trainable params: 8,302,800
_________________________________________________________________


----- Fold 1 of 10 -----
Epoch 001: val_loss improved from inf to 0.61947; runtime 0:00:01; BEST YET
Epoch 002: val_loss improved from 0.61947 to 0.55852; runtime 0:00:01; BEST YET
…
