_________________________________________________________________
Layer (type)                 Output Shape              Param #   
=================================================================
input_layer (InputLayer)     (None, 128)               0         
_________________________________________________________________
embedding_111 (Embedding)    (None, 128, 300)          8302800   
_________________________________________________________________
conv1d_291 (Conv1D)          (None, 128, 32)           67232     
_________________________________________________________________
conv1d_292 (Conv1D)          (None, 128, 32)           7200      
_________________________________________________________________
max_pooling1d_141 (MaxPoolin (None, 43, 32)            0         
_________________________________________________________________
flatten_61 (Flatten)         (None, 1376)              0         
_________________________________________________________________
dense_81 (Dense)             (None, 32)                44064     
_________________________________________________________________
dropout_161 (Dropout)        (None, 32)                0         
_________________________________________________________________
output_layer (Dense)         (None, 3)                 99        
=================================================================
Total params: 8,421,395
Trainable params: 118,595
Non-trainable params: 8,302,800
_________________________________________________________________


----- Fold 1 of 10 -----
Epoch 001: val_loss improved from inf to 0.78511; runtime 0:00:07; BEST YET
Epoch 002: val_loss improved from 0.78511 to 0.67463; runtime 0:00:01; BEST YET
…
