_________________________________________________________________
Layer (type)                 Output Shape              Param #   
=================================================================
input_layer (InputLayer)     (None, 128)               0         
_________________________________________________________________
embedding_1 (Embedding)      (None, 128, 300)          8302800   
_________________________________________________________________
conv1d_1 (Conv1D)            (None, 128, 256)          537856    
_________________________________________________________________
max_pooling1d_1 (MaxPooling1 (None, 26, 256)           0         
_________________________________________________________________
conv1d_2 (Conv1D)            (None, 26, 256)           459008    
_________________________________________________________________
max_pooling1d_2 (MaxPooling1 (None, 6, 256)            0         
_________________________________________________________________
conv1d_3 (Conv1D)            (None, 6, 256)            459008    
_________________________________________________________________
global_max_pooling1d_1 (Glob (None, 256)               0         
_________________________________________________________________
dropout_1 (Dropout)          (None, 256)               0         
_________________________________________________________________
output_layer (Dense)         (None, 3)                 771       
=================================================================
Total params: 9,759,443
Trainable params: 1,456,643
Non-trainable params: 8,302,800
_________________________________________________________________


----- Fold 1 of 10 -----
Epoch 001: val_loss improved from inf to 0.61150; runtime 0:00:03; BEST YET
Epoch 002: val_loss improved from 0.61150 to 0.53422; runtime 0:00:02; BEST YET
…
