_________________________________________________________________
Layer (type)                 Output Shape              Param #   
=================================================================
input_layer (InputLayer)     (None, 128)               0         
_________________________________________________________________
embedding_81 (Embedding)     (None, 128, 300)          8302800   
_________________________________________________________________
dropout_121 (Dropout)        (None, 128, 300)          0         
_________________________________________________________________
conv1d_241 (Conv1D)          (None, 128, 128)          115328    
_________________________________________________________________
global_max_pooling1d_31 (Glo (None, 128)               0         
_________________________________________________________________
dense_51 (Dense)             (None, 128)               16512     
_________________________________________________________________
dropout_122 (Dropout)        (None, 128)               0         
_________________________________________________________________
output_layer (Dense)         (None, 3)                 387       
=================================================================
Total params: 8,435,027
Trainable params: 132,227
Non-trainable params: 8,302,800
_________________________________________________________________


----- Fold 1 of 10 -----
Epoch 001: val_loss improved from inf to 0.69826; runtime 0:00:08; BEST YET
Epoch 002: val_loss improved from 0.69826 to 0.63732; runtime 0:00:03; BEST YET
…
