_________________________________________________________________
Layer (type)                 Output Shape              Param #   
=================================================================
input_layer (InputLayer)     (None, 128)               0         
_________________________________________________________________
embedding_51 (Embedding)     (None, 128, 300)          8302800   
_________________________________________________________________
conv1d_81 (Conv1D)           (None, 128, 128)          268928    
_________________________________________________________________
conv1d_82 (Conv1D)           (None, 128, 128)          114816    
_________________________________________________________________
max_pooling1d_61 (MaxPooling (None, 43, 128)           0         
_________________________________________________________________
flatten_31 (Flatten)         (None, 5504)              0         
_________________________________________________________________
dense_41 (Dense)             (None, 128)               704640    
_________________________________________________________________
output_layer (Dense)         (None, 3)                 387       
=================================================================
Total params: 9,391,571
Trainable params: 1,088,771
Non-trainable params: 8,302,800
_________________________________________________________________


----- Fold 1 of 10 -----
Epoch 001: val_loss improved from inf to 0.65320; runtime 0:00:07; BEST YET
Epoch 002: val_loss improved from 0.65320 to 0.54238; runtime 0:00:04; BEST YET
…
