_________________________________________________________________
Layer (type)                 Output Shape              Param #   
=================================================================
input_layer (InputLayer)     (None, 128)               0         
_________________________________________________________________
embedding_1 (Embedding)      (None, 128, 300)          8302800   
_________________________________________________________________
conv1d_1 (Conv1D)            (None, 128, 32)           48032     
_________________________________________________________________
max_pooling1d_1 (MaxPooling1 (None, 26, 32)            0         
_________________________________________________________________
flatten_1 (Flatten)          (None, 832)               0         
_________________________________________________________________
dense_1 (Dense)              (None, 32)                26656     
_________________________________________________________________
dropout_1 (Dropout)          (None, 32)                0         
_________________________________________________________________
output_layer (Dense)         (None, 3)                 99        
=================================================================
Total params: 8,377,587
Trainable params: 74,787
Non-trainable params: 8,302,800
_________________________________________________________________


----- Fold 1 of 10 -----
Epoch 001: val_loss improved from inf to 0.70623; runtime 0:00:01; BEST YET
Epoch 002: val_loss improved from 0.70623 to 0.61817; runtime 0:00:00; BEST YET
…
