_________________________________________________________________
Layer (type)                 Output Shape              Param #   
=================================================================
input_layer (InputLayer)     (None, 128)               0         
_________________________________________________________________
embedding_1 (Embedding)      (None, 128, 300)          8302800   
_________________________________________________________________
conv1d_1 (Conv1D)            (None, 128, 300)          810300    
_________________________________________________________________
max_pooling1d_1 (MaxPooling1 (None, 32, 300)           0         
_________________________________________________________________
dropout_1 (Dropout)          (None, 32, 300)           0         
_________________________________________________________________
conv1d_2 (Conv1D)            (None, 32, 300)           810300    
_________________________________________________________________
global_max_pooling1d_1 (Glob (None, 300)               0         
_________________________________________________________________
dropout_2 (Dropout)          (None, 300)               0         
_________________________________________________________________
output_layer (Dense)         (None, 3)                 903       
=================================================================
Total params: 9,924,303
Trainable params: 1,621,503
Non-trainable params: 8,302,800
_________________________________________________________________


----- Fold 1 of 10 -----
Epoch 001: val_loss improved from inf to 0.63048; runtime 0:00:03; BEST YET
Epoch 002: val_loss did not improve from 0.63048; runtime 0:00:02
Epoch 003: val_loss did not improve from 0.63048; runtime 0:00:02
…
