_________________________________________________________________
Layer (type)                 Output Shape              Param #   
=================================================================
input_layer (InputLayer)     (None, 128)               0         
_________________________________________________________________
embedding_1 (Embedding)      (None, 128, 300)          8302800   
_________________________________________________________________
conv1d_1 (Conv1D)            (None, 128, 128)          115328    
_________________________________________________________________
max_pooling1d_1 (MaxPooling1 (None, 64, 128)           0         
_________________________________________________________________
conv1d_2 (Conv1D)            (None, 64, 128)           49280     
_________________________________________________________________
max_pooling1d_2 (MaxPooling1 (None, 32, 128)           0         
_________________________________________________________________
conv1d_3 (Conv1D)            (None, 32, 128)           49280     
_________________________________________________________________
max_pooling1d_3 (MaxPooling1 (None, 16, 128)           0         
_________________________________________________________________
conv1d_4 (Conv1D)            (None, 16, 128)           49280     
_________________________________________________________________
global_average_pooling1d_1 ( (None, 128)               0         
_________________________________________________________________
output_layer (Dense)         (None, 3)                 387       
=================================================================
Total params: 8,566,355
Trainable params: 263,555
Non-trainable params: 8,302,800
_________________________________________________________________


----- Fold 1 of 10 -----
Epoch 001: val_loss improved from inf to 0.85347; runtime 0:00:01; BEST YET
Epoch 002: val_loss improved from 0.85347 to 0.78592; runtime 0:00:01; BEST YET
…
