_________________________________________________________________
Layer (type)                 Output Shape              Param #   
=================================================================
input_layer (InputLayer)     (None, 128)               0         
_________________________________________________________________
embedding_31 (Embedding)     (None, 128, 300)          8302800   
_________________________________________________________________
dropout_61 (Dropout)         (None, 128, 300)          0         
_________________________________________________________________
conv1d_61 (Conv1D)           (None, 128, 256)          691456    
_________________________________________________________________
global_max_pooling1d_11 (Glo (None, 256)               0         
_________________________________________________________________
dense_21 (Dense)             (None, 256)               65792     
_________________________________________________________________
dropout_62 (Dropout)         (None, 256)               0         
_________________________________________________________________
output_layer (Dense)         (None, 3)                 771       
=================================================================
Total params: 9,060,819
Trainable params: 758,019
Non-trainable params: 8,302,800
_________________________________________________________________


----- Fold 1 of 10 -----
Epoch 001: val_loss improved from inf to 0.73229; runtime 0:00:04; BEST YET
Epoch 002: val_loss did not improve from 0.73229; runtime 0:00:01
Epoch 003: val_loss did not improve from 0.73229; runtime 0:00:01
…
