_________________________________________________________________
Layer (type)                 Output Shape              Param #   
=================================================================
input_layer (InputLayer)     (None, 128)               0         
_________________________________________________________________
embedding_21 (Embedding)     (None, 128, 300)          8302800   
_________________________________________________________________
conv1d_51 (Conv1D)           (None, 128, 32)           86432     
_________________________________________________________________
max_pooling1d_41 (MaxPooling (None, 43, 32)            0         
_________________________________________________________________
flatten_11 (Flatten)         (None, 1376)              0         
_________________________________________________________________
dense_11 (Dense)             (None, 32)                44064     
_________________________________________________________________
output_layer (Dense)         (None, 3)                 99        
=================================================================
Total params: 8,433,395
Trainable params: 130,595
Non-trainable params: 8,302,800
_________________________________________________________________


----- Fold 1 of 10 -----
Epoch 001: val_loss improved from inf to 0.67357; runtime 0:00:02; BEST YET
Epoch 002: val_loss improved from 0.67357 to 0.63111; runtime 0:00:01; BEST YET
…
