_________________________________________________________________
Layer (type)                 Output Shape              Param #   
=================================================================
input_layer (InputLayer)     (None, 128)               0         
_________________________________________________________________
embedding_131 (Embedding)    (None, 128, 300)          8302800   
_________________________________________________________________
conv1d_391 (Conv1D)          (None, 128, 64)           172864    
_________________________________________________________________
max_pooling1d_181 (MaxPoolin (None, 43, 64)            0         
_________________________________________________________________
conv1d_392 (Conv1D)          (None, 43, 64)            36928     
_________________________________________________________________
global_average_pooling1d_11  (None, 64)                0         
_________________________________________________________________
output_layer (Dense)         (None, 3)                 195       
=================================================================
Total params: 8,512,787
Trainable params: 209,987
Non-trainable params: 8,302,800
_________________________________________________________________


----- Fold 1 of 10 -----
Epoch 001: val_loss improved from inf to 0.64129; runtime 0:00:08; BEST YET
Epoch 002: val_loss improved from 0.64129 to 0.56550; runtime 0:00:01; BEST YET
…
