_________________________________________________________________
Layer (type)                 Output Shape              Param #   
=================================================================
input_layer (InputLayer)     (None, 128)               0         
_________________________________________________________________
embedding_1 (Embedding)      (None, 128, 300)          8302800   
_________________________________________________________________
conv1d_1 (Conv1D)            (None, 128, 256)          230656    
_________________________________________________________________
max_pooling1d_1 (MaxPooling1 (None, 26, 256)           0         
_________________________________________________________________
dropout_1 (Dropout)          (None, 26, 256)           0         
_________________________________________________________________
conv1d_2 (Conv1D)            (None, 26, 256)           196864    
_________________________________________________________________
global_max_pooling1d_1 (Glob (None, 256)               0         
_________________________________________________________________
output_layer (Dense)         (None, 3)                 771       
=================================================================
Total params: 8,731,091
Trainable params: 428,291
Non-trainable params: 8,302,800
_________________________________________________________________


----- Fold 1 of 10 -----
Epoch 001: val_loss improved from inf to 0.65264; runtime 0:00:01; BEST YET
Epoch 002: val_loss improved from 0.65264 to 0.61370; runtime 0:00:01; BEST YET
…
