_________________________________________________________________
Layer (type)                 Output Shape              Param #   
=================================================================
input_layer (InputLayer)     (None, 128)               0         
_________________________________________________________________
embedding_1 (Embedding)      (None, 128, 300)          8302800   
_________________________________________________________________
conv1d_1 (Conv1D)            (None, 128, 32)           48032     
_________________________________________________________________
max_pooling1d_1 (MaxPooling1 (None, 43, 32)            0         
_________________________________________________________________
dropout_1 (Dropout)          (None, 43, 32)            0         
_________________________________________________________________
conv1d_2 (Conv1D)            (None, 43, 32)            5152      
_________________________________________________________________
max_pooling1d_2 (MaxPooling1 (None, 15, 32)            0         
_________________________________________________________________
dropout_2 (Dropout)          (None, 15, 32)            0         
_________________________________________________________________
conv1d_3 (Conv1D)            (None, 15, 32)            5152      
_________________________________________________________________
max_pooling1d_3 (MaxPooling1 (None, 5, 32)             0         
_________________________________________________________________
dropout_3 (Dropout)          (None, 5, 32)             0         
_________________________________________________________________
conv1d_4 (Conv1D)            (None, 5, 32)             5152      
_________________________________________________________________
global_max_pooling1d_1 (Glob (None, 32)                0         
_________________________________________________________________
dropout_4 (Dropout)          (None, 32)                0         
_________________________________________________________________
output_layer (Dense)         (None, 3)                 99        
=================================================================
Total params: 8,366,387
Trainable params: 63,587
Non-trainable params: 8,302,800
_________________________________________________________________


----- Fold 1 of 10 -----
Epoch 001: val_loss improved from inf to 0.71172; runtime 0:00:02; BEST YET
Epoch 002: val_loss did not improve from 0.71172; runtime 0:00:02
Epoch 003: val_loss improved from 0.71172 to 0.56963; runtime 0:00:02; BEST YET
…
