_________________________________________________________________
Layer (type)                 Output Shape              Param #   
=================================================================
input_layer (InputLayer)     (None, 128)               0         
_________________________________________________________________
embedding_41 (Embedding)     (None, 128, 300)          8302800   
_________________________________________________________________
conv1d_71 (Conv1D)           (None, 128, 32)           67232     
_________________________________________________________________
max_pooling1d_51 (MaxPooling (None, 64, 32)            0         
_________________________________________________________________
flatten_21 (Flatten)         (None, 2048)              0         
_________________________________________________________________
dense_31 (Dense)             (None, 32)                65568     
_________________________________________________________________
output_layer (Dense)         (None, 3)                 99        
=================================================================
Total params: 8,435,699
Trainable params: 132,899
Non-trainable params: 8,302,800
_________________________________________________________________


----- Fold 1 of 10 -----
Epoch 001: val_loss improved from inf to 0.61544; runtime 0:00:06; BEST YET
Epoch 002: val_loss did not improve from 0.61544; runtime 0:00:03
Epoch 003: val_loss did not improve from 0.61544; runtime 0:00:03
…
