_________________________________________________________________
Layer (type)                 Output Shape              Param #   
=================================================================
input_layer (InputLayer)     (None, 128)               0         
_________________________________________________________________
embedding_1 (Embedding)      (None, 128, 300)          8302800   
_________________________________________________________________
conv1d_1 (Conv1D)            (None, 128, 32)           28832     
_________________________________________________________________
conv1d_2 (Conv1D)            (None, 128, 32)           3104      
_________________________________________________________________
max_pooling1d_1 (MaxPooling1 (None, 64, 32)            0         
_________________________________________________________________
conv1d_3 (Conv1D)            (None, 64, 32)            3104      
_________________________________________________________________
conv1d_4 (Conv1D)            (None, 64, 32)            3104      
_________________________________________________________________
max_pooling1d_2 (MaxPooling1 (None, 32, 32)            0         
_________________________________________________________________
conv1d_5 (Conv1D)            (None, 32, 32)            3104      
_________________________________________________________________
conv1d_6 (Conv1D)            (None, 32, 32)            3104      
_________________________________________________________________
global_max_pooling1d_1 (Glob (None, 32)                0         
_________________________________________________________________
output_layer (Dense)         (None, 3)                 99        
=================================================================
Total params: 8,347,251
Trainable params: 44,451
Non-trainable params: 8,302,800
_________________________________________________________________


----- Fold 1 of 10 -----
Epoch 001: val_loss improved from inf to 0.90062; runtime 0:00:02; BEST YET
Epoch 002: val_loss improved from 0.90062 to 0.66776; runtime 0:00:01; BEST YET
…
