_________________________________________________________________
Layer (type)                 Output Shape              Param #   
=================================================================
input_layer (InputLayer)     (None, 128)               0         
_________________________________________________________________
embedding_1 (Embedding)      (None, 128, 300)          8302800   
_________________________________________________________________
conv1d_1 (Conv1D)            (None, 128, 64)           172864    
_________________________________________________________________
max_pooling1d_1 (MaxPooling1 (None, 43, 64)            0         
_________________________________________________________________
dropout_1 (Dropout)          (None, 43, 64)            0         
_________________________________________________________________
conv1d_2 (Conv1D)            (None, 43, 64)            36928     
_________________________________________________________________
max_pooling1d_2 (MaxPooling1 (None, 15, 64)            0         
_________________________________________________________________
dropout_2 (Dropout)          (None, 15, 64)            0         
_________________________________________________________________
conv1d_3 (Conv1D)            (None, 15, 64)            36928     
_________________________________________________________________
max_pooling1d_3 (MaxPooling1 (None, 5, 64)             0         
_________________________________________________________________
dropout_3 (Dropout)          (None, 5, 64)             0         
_________________________________________________________________
conv1d_4 (Conv1D)            (None, 5, 64)             36928     
_________________________________________________________________
global_average_pooling1d_1 ( (None, 64)                0         
_________________________________________________________________
output_layer (Dense)         (None, 3)                 195       
=================================================================
Total params: 8,586,643
Trainable params: 283,843
Non-trainable params: 8,302,800
_________________________________________________________________


----- Fold 1 of 10 -----
Epoch 001: val_loss improved from inf to 0.88409; runtime 0:00:01; BEST YET
Epoch 002: val_loss improved from 0.88409 to 0.71357; runtime 0:00:01; BEST YET
…
