_________________________________________________________________
Layer (type)                 Output Shape              Param #   
=================================================================
input_layer (InputLayer)     (None, 128)               0         
_________________________________________________________________
embedding_1 (Embedding)      (None, 128, 300)          8302800   
_________________________________________________________________
conv1d_1 (Conv1D)            (None, 128, 300)          630300    
_________________________________________________________________
conv1d_2 (Conv1D)            (None, 128, 300)          630300    
_________________________________________________________________
max_pooling1d_1 (MaxPooling1 (None, 43, 300)           0         
_________________________________________________________________
conv1d_3 (Conv1D)            (None, 43, 300)           630300    
_________________________________________________________________
conv1d_4 (Conv1D)            (None, 43, 300)           630300    
_________________________________________________________________
max_pooling1d_2 (MaxPooling1 (None, 15, 300)           0         
_________________________________________________________________
conv1d_5 (Conv1D)            (None, 15, 300)           630300    
_________________________________________________________________
conv1d_6 (Conv1D)            (None, 15, 300)           630300    
_________________________________________________________________
global_max_pooling1d_1 (Glob (None, 300)               0         
_________________________________________________________________
dropout_1 (Dropout)          (None, 300)               0         
_________________________________________________________________
output_layer (Dense)         (None, 3)                 903       
=================================================================
Total params: 12,085,503
Trainable params: 3,782,703
Non-trainable params: 8,302,800
_________________________________________________________________


----- Fold 1 of 10 -----
Epoch 001: val_loss improved from inf to 1.22331; runtime 0:00:05; BEST YET
Epoch 002: val_loss improved from 1.22331 to 0.60181; runtime 0:00:04; BEST YET
…
