_________________________________________________________________
Layer (type)                 Output Shape              Param #   
=================================================================
input_layer (InputLayer)     (None, 128)               0         
_________________________________________________________________
embedding_1 (Embedding)      (None, 128, 300)          8302800   
_________________________________________________________________
conv1d_1 (Conv1D)            (None, 128, 256)          691456    
_________________________________________________________________
conv1d_2 (Conv1D)            (None, 128, 256)          590080    
_________________________________________________________________
max_pooling1d_1 (MaxPooling1 (None, 32, 256)           0         
_________________________________________________________________
dropout_1 (Dropout)          (None, 32, 256)           0         
_________________________________________________________________
conv1d_3 (Conv1D)            (None, 32, 256)           590080    
_________________________________________________________________
conv1d_4 (Conv1D)            (None, 32, 256)           590080    
_________________________________________________________________
max_pooling1d_2 (MaxPooling1 (None, 8, 256)            0         
_________________________________________________________________
dropout_2 (Dropout)          (None, 8, 256)            0         
_________________________________________________________________
flatten_1 (Flatten)          (None, 2048)              0         
_________________________________________________________________
dense_1 (Dense)              (None, 256)               524544    
_________________________________________________________________
dropout_3 (Dropout)          (None, 256)               0         
_________________________________________________________________
output_layer (Dense)         (None, 3)                 771       
=================================================================
Total params: 11,289,811
Trainable params: 2,987,011
Non-trainable params: 8,302,800
_________________________________________________________________


----- Fold 1 of 10 -----
Epoch 001: val_loss improved from inf to 0.77537; runtime 0:00:04; BEST YET
Epoch 002: val_loss improved from 0.77537 to 0.62959; runtime 0:00:02; BEST YET
…
