_________________________________________________________________
Layer (type)                 Output Shape              Param #   
=================================================================
input_layer (InputLayer)     (None, 128)               0         
_________________________________________________________________
embedding_1 (Embedding)      (None, 128, 300)          8302800   
_________________________________________________________________
conv1d_1 (Conv1D)            (None, 128, 300)          450300    
_________________________________________________________________
max_pooling1d_1 (MaxPooling1 (None, 26, 300)           0         
_________________________________________________________________
dropout_1 (Dropout)          (None, 26, 300)           0         
_________________________________________________________________
conv1d_2 (Conv1D)            (None, 26, 300)           450300    
_________________________________________________________________
max_pooling1d_2 (MaxPooling1 (None, 6, 300)            0         
_________________________________________________________________
dropout_2 (Dropout)          (None, 6, 300)            0         
_________________________________________________________________
flatten_1 (Flatten)          (None, 1800)              0         
_________________________________________________________________
dense_1 (Dense)              (None, 300)               540300    
_________________________________________________________________
dropout_3 (Dropout)          (None, 300)               0         
_________________________________________________________________
output_layer (Dense)         (None, 3)                 903       
=================================================================
Total params: 9,744,603
Trainable params: 1,441,803
Non-trainable params: 8,302,800
_________________________________________________________________


----- Fold 1 of 10 -----
Epoch 001: val_loss improved from inf to 0.67375; runtime 0:00:02; BEST YET
Epoch 002: val_loss improved from 0.67375 to 0.59312; runtime 0:00:02; BEST YET
…
