_________________________________________________________________
Layer (type)                 Output Shape              Param #   
=================================================================
input_layer (InputLayer)     (None, 128)               0         
_________________________________________________________________
embedding_1 (Embedding)      (None, 128, 300)          8302800   
_________________________________________________________________
conv1d_1 (Conv1D)            (None, 128, 128)          268928    
_________________________________________________________________
conv1d_2 (Conv1D)            (None, 128, 128)          114816    
_________________________________________________________________
max_pooling1d_1 (MaxPooling1 (None, 32, 128)           0         
_________________________________________________________________
conv1d_3 (Conv1D)            (None, 32, 128)           114816    
_________________________________________________________________
conv1d_4 (Conv1D)            (None, 32, 128)           114816    
_________________________________________________________________
max_pooling1d_2 (MaxPooling1 (None, 8, 128)            0         
_________________________________________________________________
conv1d_5 (Conv1D)            (None, 8, 128)            114816    
_________________________________________________________________
conv1d_6 (Conv1D)            (None, 8, 128)            114816    
_________________________________________________________________
global_average_pooling1d_1 ( (None, 128)               0         
_________________________________________________________________
output_layer (Dense)         (None, 3)                 387       
=================================================================
Total params: 9,146,195
Trainable params: 843,395
Non-trainable params: 8,302,800
_________________________________________________________________


----- Fold 1 of 10 -----
Epoch 001: val_loss improved from inf to 0.67375; runtime 0:00:05; BEST YET
Epoch 002: val_loss improved from 0.67375 to 0.54755; runtime 0:00:04; BEST YET
…
