_________________________________________________________________
Layer (type)                 Output Shape              Param #   
=================================================================
input_layer (InputLayer)     (None, 128)               0         
_________________________________________________________________
embedding_191 (Embedding)    (None, 128, 300)          8302800   
_________________________________________________________________
conv1d_591 (Conv1D)          (None, 128, 256)          537856    
_________________________________________________________________
conv1d_592 (Conv1D)          (None, 128, 256)          459008    
_________________________________________________________________
max_pooling1d_261 (MaxPoolin (None, 43, 256)           0         
_________________________________________________________________
dropout_231 (Dropout)        (None, 43, 256)           0         
_________________________________________________________________
conv1d_593 (Conv1D)          (None, 43, 256)           459008    
_________________________________________________________________
conv1d_594 (Conv1D)          (None, 43, 256)           459008    
_________________________________________________________________
max_pooling1d_262 (MaxPoolin (None, 15, 256)           0         
_________________________________________________________________
dropout_232 (Dropout)        (None, 15, 256)           0         
_________________________________________________________________
conv1d_595 (Conv1D)          (None, 15, 256)           459008    
_________________________________________________________________
conv1d_596 (Conv1D)          (None, 15, 256)           459008    
_________________________________________________________________
max_pooling1d_263 (MaxPoolin (None, 5, 256)            0         
_________________________________________________________________
dropout_233 (Dropout)        (None, 5, 256)            0         
_________________________________________________________________
flatten_81 (Flatten)         (None, 1280)              0         
_________________________________________________________________
dense_111 (Dense)            (None, 256)               327936    
_________________________________________________________________
dropout_234 (Dropout)        (None, 256)               0         
_________________________________________________________________
output_layer (Dense)         (None, 3)                 771       
=================================================================
Total params: 11,464,403
Trainable params: 3,161,603
Non-trainable params: 8,302,800
_________________________________________________________________


----- Fold 1 of 10 -----
Epoch 001: val_loss improved from inf to 0.78183; runtime 0:00:21; BEST YET
Epoch 002: val_loss improved from 0.78183 to 0.55841; runtime 0:00:10; BEST YET
…
