_________________________________________________________________
Layer (type)                 Output Shape              Param #   
=================================================================
input_layer (InputLayer)     (None, 128)               0         
_________________________________________________________________
embedding_71 (Embedding)     (None, 128, 300)          8302800   
_________________________________________________________________
conv1d_161 (Conv1D)          (None, 128, 128)          268928    
_________________________________________________________________
conv1d_162 (Conv1D)          (None, 128, 128)          114816    
_________________________________________________________________
max_pooling1d_91 (MaxPooling (None, 43, 128)           0         
_________________________________________________________________
dropout_81 (Dropout)         (None, 43, 128)           0         
_________________________________________________________________
conv1d_163 (Conv1D)          (None, 43, 128)           114816    
_________________________________________________________________
conv1d_164 (Conv1D)          (None, 43, 128)           114816    
_________________________________________________________________
max_pooling1d_92 (MaxPooling (None, 15, 128)           0         
_________________________________________________________________
dropout_82 (Dropout)         (None, 15, 128)           0         
_________________________________________________________________
conv1d_165 (Conv1D)          (None, 15, 128)           114816    
_________________________________________________________________
conv1d_166 (Conv1D)          (None, 15, 128)           114816    
_________________________________________________________________
max_pooling1d_93 (MaxPooling (None, 5, 128)            0         
_________________________________________________________________
dropout_83 (Dropout)         (None, 5, 128)            0         
_________________________________________________________________
conv1d_167 (Conv1D)          (None, 5, 128)            114816    
_________________________________________________________________
conv1d_168 (Conv1D)          (None, 5, 128)            114816    
_________________________________________________________________
global_average_pooling1d_1 ( (None, 128)               0         
_________________________________________________________________
dropout_84 (Dropout)         (None, 128)               0         
_________________________________________________________________
output_layer (Dense)         (None, 3)                 387       
=================================================================
Total params: 9,375,827
Trainable params: 1,073,027
Non-trainable params: 8,302,800
_________________________________________________________________


----- Fold 1 of 10 -----
Epoch 001: val_loss improved from inf to 1.05241; runtime 0:00:08; BEST YET
Epoch 002: val_loss improved from 1.05241 to 0.83322; runtime 0:00:03; BEST YET
…
