_________________________________________________________________
Layer (type)                 Output Shape              Param #   
=================================================================
input_layer (InputLayer)     (None, 128)               0         
_________________________________________________________________
embedding_1 (Embedding)      (None, 128, 300)          8302800   
_________________________________________________________________
dropout_1 (Dropout)          (None, 128, 300)          0         
_________________________________________________________________
conv1d_1 (Conv1D)            (None, 128, 64)           57664     
_________________________________________________________________
global_max_pooling1d_1 (Glob (None, 64)                0         
_________________________________________________________________
dense_1 (Dense)              (None, 64)                4160      
_________________________________________________________________
dropout_2 (Dropout)          (None, 64)                0         
_________________________________________________________________
output_layer (Dense)         (None, 3)                 195       
=================================================================
Total params: 8,364,819
Trainable params: 62,019
Non-trainable params: 8,302,800
_________________________________________________________________


----- Fold 1 of 10 -----
Epoch 001: val_loss improved from inf to 0.62947; runtime 0:00:02; BEST YET
Epoch 002: val_loss improved from 0.62947 to 0.59802; runtime 0:00:01; BEST YET
…
