_________________________________________________________________
Layer (type)                 Output Shape              Param #   
=================================================================
input_layer (InputLayer)     (None, 128)               0         
_________________________________________________________________
embedding_1 (Embedding)      (None, 128, 300)          8302800   
_________________________________________________________________
conv1d_1 (Conv1D)            (None, 128, 300)          450300    
_________________________________________________________________
conv1d_2 (Conv1D)            (None, 128, 300)          450300    
_________________________________________________________________
max_pooling1d_1 (MaxPooling1 (None, 64, 300)           0         
_________________________________________________________________
dropout_1 (Dropout)          (None, 64, 300)           0         
_________________________________________________________________
flatten_1 (Flatten)          (None, 19200)             0         
_________________________________________________________________
dense_1 (Dense)              (None, 300)               5760300   
_________________________________________________________________
dropout_2 (Dropout)          (None, 300)               0         
_________________________________________________________________
output_layer (Dense)         (None, 3)                 903       
=================================================================
Total params: 14,964,603
Trainable params: 6,661,803
Non-trainable params: 8,302,800
_________________________________________________________________


----- Fold 1 of 10 -----
Epoch 001: val_loss improved from inf to 0.74003; runtime 0:00:03; BEST YET
Epoch 002: val_loss improved from 0.74003 to 0.67628; runtime 0:00:02; BEST YET
…
