_________________________________________________________________
Layer (type)                 Output Shape              Param #   
=================================================================
input_layer (InputLayer)     (None, 128)               0         
_________________________________________________________________
embedding_1 (Embedding)      (None, 128, 300)          8302800   
_________________________________________________________________
conv1d_1 (Conv1D)            (None, 128, 32)           28832     
_________________________________________________________________
max_pooling1d_1 (MaxPooling1 (None, 43, 32)            0         
_________________________________________________________________
conv1d_2 (Conv1D)            (None, 43, 32)            3104      
_________________________________________________________________
max_pooling1d_2 (MaxPooling1 (None, 15, 32)            0         
_________________________________________________________________
conv1d_3 (Conv1D)            (None, 15, 32)            3104      
_________________________________________________________________
max_pooling1d_3 (MaxPooling1 (None, 5, 32)             0         
_________________________________________________________________
conv1d_4 (Conv1D)            (None, 5, 32)             3104      
_________________________________________________________________
global_average_pooling1d_1 ( (None, 32)                0         
_________________________________________________________________
dropout_1 (Dropout)          (None, 32)                0         
_________________________________________________________________
output_layer (Dense)         (None, 3)                 99        
=================================================================
Total params: 8,341,043
Trainable params: 38,243
Non-trainable params: 8,302,800
_________________________________________________________________


----- Fold 1 of 10 -----
Epoch 001: val_loss improved from inf to 0.68440; runtime 0:00:04; BEST YET
Epoch 002: val_loss improved from 0.68440 to 0.59409; runtime 0:00:03; BEST YET
…
