_________________________________________________________________
Layer (type)                 Output Shape              Param #   
=================================================================
input_layer (InputLayer)     (None, 128)               0         
_________________________________________________________________
embedding_1 (Embedding)      (None, 128, 300)          8302800   
_________________________________________________________________
conv1d_1 (Conv1D)            (None, 128, 64)           134464    
_________________________________________________________________
max_pooling1d_1 (MaxPooling1 (None, 26, 64)            0         
_________________________________________________________________
conv1d_2 (Conv1D)            (None, 26, 64)            28736     
_________________________________________________________________
max_pooling1d_2 (MaxPooling1 (None, 6, 64)             0         
_________________________________________________________________
conv1d_3 (Conv1D)            (None, 6, 64)             28736     
_________________________________________________________________
max_pooling1d_3 (MaxPooling1 (None, 2, 64)             0         
_________________________________________________________________
conv1d_4 (Conv1D)            (None, 2, 64)             28736     
_________________________________________________________________
global_average_pooling1d_1 ( (None, 64)                0         
_________________________________________________________________
output_layer (Dense)         (None, 3)                 195       
=================================================================
Total params: 8,523,667
Trainable params: 220,867
Non-trainable params: 8,302,800
_________________________________________________________________


----- Fold 1 of 10 -----
Epoch 001: val_loss improved from inf to 0.84604; runtime 0:00:01; BEST YET
Epoch 002: val_loss improved from 0.84604 to 0.69974; runtime 0:00:00; BEST YET
…
