_________________________________________________________________
Layer (type)                 Output Shape              Param #   
=================================================================
input_layer (InputLayer)     (None, 128)               0         
_________________________________________________________________
embedding_161 (Embedding)    (None, 128, 300)          8302800   
_________________________________________________________________
conv1d_491 (Conv1D)          (None, 128, 32)           48032     
_________________________________________________________________
conv1d_492 (Conv1D)          (None, 128, 32)           5152      
_________________________________________________________________
max_pooling1d_211 (MaxPoolin (None, 32, 32)            0         
_________________________________________________________________
conv1d_493 (Conv1D)          (None, 32, 32)            5152      
_________________________________________________________________
conv1d_494 (Conv1D)          (None, 32, 32)            5152      
_________________________________________________________________
max_pooling1d_212 (MaxPoolin (None, 8, 32)             0         
_________________________________________________________________
conv1d_495 (Conv1D)          (None, 8, 32)             5152      
_________________________________________________________________
conv1d_496 (Conv1D)          (None, 8, 32)             5152      
_________________________________________________________________
max_pooling1d_213 (MaxPoolin (None, 2, 32)             0         
_________________________________________________________________
flatten_71 (Flatten)         (None, 64)                0         
_________________________________________________________________
dense_91 (Dense)             (None, 32)                2080      
_________________________________________________________________
dropout_191 (Dropout)        (None, 32)                0         
_________________________________________________________________
output_layer (Dense)         (None, 3)                 99        
=================================================================
Total params: 8,378,771
Trainable params: 75,971
Non-trainable params: 8,302,800
_________________________________________________________________


----- Fold 1 of 10 -----
Epoch 001: val_loss improved from inf to 0.68655; runtime 0:00:16; BEST YET
Epoch 002: val_loss improved from 0.68655 to 0.66921; runtime 0:00:07; BEST YET
…
