_________________________________________________________________
Layer (type)                 Output Shape              Param #   
=================================================================
input_layer (InputLayer)     (None, 128)               0         
_________________________________________________________________
embedding_101 (Embedding)    (None, 128, 300)          8302800   
_________________________________________________________________
conv1d_271 (Conv1D)          (None, 128, 128)          268928    
_________________________________________________________________
conv1d_272 (Conv1D)          (None, 128, 128)          114816    
_________________________________________________________________
max_pooling1d_131 (MaxPoolin (None, 26, 128)           0         
_________________________________________________________________
flatten_51 (Flatten)         (None, 3328)              0         
_________________________________________________________________
dense_71 (Dense)             (None, 128)               426112    
_________________________________________________________________
dropout_151 (Dropout)        (None, 128)               0         
_________________________________________________________________
output_layer (Dense)         (None, 3)                 387       
=================================================================
Total params: 9,113,043
Trainable params: 810,243
Non-trainable params: 8,302,800
_________________________________________________________________


----- Fold 1 of 10 -----
Epoch 001: val_loss improved from inf to 0.89469; runtime 0:00:07; BEST YET
Epoch 002: val_loss improved from 0.89469 to 0.56353; runtime 0:00:02; BEST YET
…
