_________________________________________________________________
Layer (type)                 Output Shape              Param #   
=================================================================
input_layer (InputLayer)     (None, 128)               0         
_________________________________________________________________
embedding_1 (Embedding)      (None, 128, 300)          8302800   
_________________________________________________________________
spatial_dropout1d_1 (Spatial (None, 128, 300)          0         
_________________________________________________________________
bidirectional_1 (Bidirection (None, 128, 128)          187392    
_________________________________________________________________
spatial_dropout1d_2 (Spatial (None, 128, 128)          0         
_________________________________________________________________
bidirectional_2 (Bidirection (None, 128, 128)          99328     
_________________________________________________________________
global_max_pooling1d_1 (Glob (None, 128)               0         
_________________________________________________________________
output_layer (Dense)         (None, 3)                 387       
=================================================================
Total params: 8,589,907
Trainable params: 287,107
Non-trainable params: 8,302,800
_________________________________________________________________


----- Fold 1 of 10 -----
Epoch 001: val_loss improved from inf to 0.81163; runtime 0:00:03; BEST YET
Epoch 002: val_loss improved from 0.81163 to 0.71767; runtime 0:00:02; BEST YET
…
