_________________________________________________________________
Layer (type)                 Output Shape              Param #   
=================================================================
input_layer (InputLayer)     (None, 128)               0         
_________________________________________________________________
embedding_1 (Embedding)      (None, 128, 300)          8302800   
_________________________________________________________________
spatial_dropout1d_1 (Spatial (None, 128, 300)          0         
_________________________________________________________________
bidirectional_1 (Bidirection (None, 128, 600)          1083600   
_________________________________________________________________
global_max_pooling1d_1 (Glob (None, 600)               0         
_________________________________________________________________
output_layer (Dense)         (None, 3)                 1803      
=================================================================
Total params: 9,388,203
Trainable params: 1,085,403
Non-trainable params: 8,302,800
_________________________________________________________________


----- Fold 1 of 10 -----
Epoch 001: val_loss improved from inf to 0.56167; runtime 0:00:06; BEST YET
Epoch 002: val_loss improved from 0.56167 to 0.52531; runtime 0:00:06; BEST YET
…
