_________________________________________________________________
Layer (type)                 Output Shape              Param #   
=================================================================
input_layer (InputLayer)     (None, 128)               0         
_________________________________________________________________
embedding_1 (Embedding)      (None, 128, 300)          8302800   
_________________________________________________________________
spatial_dropout1d_1 (Spatial (None, 128, 300)          0         
_________________________________________________________________
bidirectional_1 (Bidirection (None, 128, 512)          857088    
_________________________________________________________________
spatial_dropout1d_2 (Spatial (None, 128, 512)          0         
_________________________________________________________________
bidirectional_2 (Bidirection (None, 128, 512)          1182720   
_________________________________________________________________
global_max_pooling1d_1 (Glob (None, 512)               0         
_________________________________________________________________
output_layer (Dense)         (None, 3)                 1539      
=================================================================
Total params: 10,344,147
Trainable params: 2,041,347
Non-trainable params: 8,302,800
_________________________________________________________________


----- Fold 1 of 10 -----
Epoch 001: val_loss improved from inf to 0.66169; runtime 0:00:08; BEST YET
Epoch 002: val_loss improved from 0.66169 to 0.60317; runtime 0:00:06; BEST YET
…
