__________________________________________________________________________________________________
Layer (type)                    Output Shape         Param #     Connected to                     
==================================================================================================
input_layer (InputLayer)        (None, 128)          0                                            
__________________________________________________________________________________________________
embedding_1 (Embedding)         (None, 128, 300)     8302800     input_layer[0][0]                
__________________________________________________________________________________________________
spatial_dropout1d_1 (SpatialDro (None, 128, 300)     0           embedding_1[0][0]                
__________________________________________________________________________________________________
bidirectional_1 (Bidirectional) (None, 128, 600)     1083600     spatial_dropout1d_1[0][0]        
__________________________________________________________________________________________________
spatial_dropout1d_2 (SpatialDro (None, 128, 600)     0           bidirectional_1[0][0]            
__________________________________________________________________________________________________
bidirectional_2 (Bidirectional) (None, 128, 600)     1623600     spatial_dropout1d_2[0][0]        
__________________________________________________________________________________________________
global_average_pooling1d_1 (Glo (None, 600)          0           bidirectional_2[0][0]            
__________________________________________________________________________________________________
global_max_pooling1d_1 (GlobalM (None, 600)          0           bidirectional_2[0][0]            
__________________________________________________________________________________________________
concatenate_1 (Concatenate)     (None, 1200)         0           global_average_pooling1d_1[0][0] 
                                                                 global_max_pooling1d_1[0][0]     
__________________________________________________________________________________________________
output_layer (Dense)            (None, 3)            3603        concatenate_1[0][0]              
==================================================================================================
Total params: 11,013,603
Trainable params: 2,710,803
Non-trainable params: 8,302,800
__________________________________________________________________________________________________


----- Fold 1 of 10 -----
Epoch 001: val_loss improved from inf to 0.57512; runtime 0:00:20; BEST YET
…
