_________________________________________________________________
Layer (type)                 Output Shape              Param #   
=================================================================
input_layer (InputLayer)     (None, 128)               0         
_________________________________________________________________
embedding_1 (Embedding)      (None, 128, 300)          8302800   
_________________________________________________________________
spatial_dropout1d_1 (Spatial (None, 128, 300)          0         
_________________________________________________________________
bidirectional_1 (Bidirection (None, 128, 600)          1083600   
_________________________________________________________________
spatial_dropout1d_2 (Spatial (None, 128, 600)          0         
_________________________________________________________________
bidirectional_2 (Bidirection (None, 128, 600)          1623600   
_________________________________________________________________
global_max_pooling1d_1 (Glob (None, 600)               0         
_________________________________________________________________
output_layer (Dense)         (None, 3)                 1803      
=================================================================
Total params: 11,011,803
Trainable params: 2,709,003
Non-trainable params: 8,302,800
_________________________________________________________________


----- Fold 1 of 10 -----
Epoch 001: val_loss improved from inf to 0.63957; runtime 0:00:11; BEST YET
Epoch 002: val_loss improved from 0.63957 to 0.52716; runtime 0:00:10; BEST YET
…
