_________________________________________________________________
Layer (type)                 Output Shape              Param #   
=================================================================
input_layer (InputLayer)     (None, 76318)             0         
_________________________________________________________________
dropout_1 (Dropout)          (None, 76318)             0         
_________________________________________________________________
dense_1 (Dense)              (None, 256)               19537664  
_________________________________________________________________
dropout_2 (Dropout)          (None, 256)               0         
_________________________________________________________________
output_layer (Dense)         (None, 3)                 771       
=================================================================
Total params: 19,538,435
Trainable params: 19,538,435
Non-trainable params: 0
_________________________________________________________________


----- Fold 1 of 10 -----
Epoch 001: val_loss improved from inf to 0.51920; runtime 0:00:08; BEST YET
Epoch 002: val_loss improved from 0.51920 to 0.37607; runtime 0:00:07; BEST YET
…
