_________________________________________________________________
Layer (type)                 Output Shape              Param #   
=================================================================
input_layer (InputLayer)     (None, 76318)             0         
_________________________________________________________________
dropout_1 (Dropout)          (None, 76318)             0         
_________________________________________________________________
dense_1 (Dense)              (None, 64)                4884416   
_________________________________________________________________
dropout_2 (Dropout)          (None, 64)                0         
_________________________________________________________________
output_layer (Dense)         (None, 3)                 195       
=================================================================
Total params: 4,884,611
Trainable params: 4,884,611
Non-trainable params: 0
_________________________________________________________________


----- Fold 1 of 10 -----
Epoch 001: val_loss improved from inf to 0.91190; runtime 0:00:06; BEST YET
Epoch 002: val_loss improved from 0.91190 to 0.72992; runtime 0:00:06; BEST YET
Epoch 003: val_loss improved from 0.72992 to 0.59507; runtime 0:00:06; BEST YET
…
