_________________________________________________________________
Layer (type)                 Output Shape              Param #   
=================================================================
input_layer (InputLayer)     (None, 76318)             0         
_________________________________________________________________
dropout_1 (Dropout)          (None, 76318)             0         
_________________________________________________________________
dense_1 (Dense)              (None, 32)                2442208   
_________________________________________________________________
dropout_2 (Dropout)          (None, 32)                0         
_________________________________________________________________
output_layer (Dense)         (None, 3)                 99        
=================================================================
Total params: 2,442,307
Trainable params: 2,442,307
Non-trainable params: 0
_________________________________________________________________


----- Fold 1 of 10 -----
Epoch 001: val_loss improved from inf to 0.98330; runtime 0:00:05; BEST YET
Epoch 002: val_loss improved from 0.98330 to 0.84915; runtime 0:00:05; BEST YET
Epoch 003: val_loss improved from 0.84915 to 0.72017; runtime 0:00:05; BEST YET
…
