_________________________________________________________________
Layer (type)                 Output Shape              Param #   
=================================================================
input_layer (InputLayer)     (None, 76318)             0         
_________________________________________________________________
dropout_1 (Dropout)          (None, 76318)             0         
_________________________________________________________________
dense_1 (Dense)              (None, 64)                4884416   
_________________________________________________________________
dropout_2 (Dropout)          (None, 64)                0         
_________________________________________________________________
output_layer (Dense)         (None, 3)                 195       
=================================================================
Total params: 4,884,611
Trainable params: 4,884,611
Non-trainable params: 0
_________________________________________________________________


----- Fold 1 of 10 -----
Epoch 001: val_loss improved from inf to 0.62080; runtime 0:00:07; BEST YET
Epoch 002: val_loss improved from 0.62080 to 0.45502; runtime 0:00:07; BEST YET
Epoch 003: val_loss improved from 0.45502 to 0.40971; runtime 0:00:07; BEST YET
…
