_________________________________________________________________
Layer (type)                 Output Shape              Param #   
=================================================================
input_layer (InputLayer)     (None, 76318)             0         
_________________________________________________________________
dropout_1 (Dropout)          (None, 76318)             0         
_________________________________________________________________
dense_1 (Dense)              (None, 64)                4884416   
_________________________________________________________________
dropout_2 (Dropout)          (None, 64)                0         
_________________________________________________________________
dense_2 (Dense)              (None, 64)                4160      
_________________________________________________________________
dropout_3 (Dropout)          (None, 64)                0         
_________________________________________________________________
output_layer (Dense)         (None, 3)                 195       
=================================================================
Total params: 4,888,771
Trainable params: 4,888,771
Non-trainable params: 0
_________________________________________________________________


----- Fold 1 of 10 -----
Epoch 001: val_loss improved from inf to 0.51858; runtime 0:00:06; BEST YET
Epoch 002: val_loss improved from 0.51858 to 0.36208; runtime 0:00:05; BEST YET
Epoch 003: val_loss improved from 0.36208 to 0.34833; runtime 0:00:05; BEST YET
…
