_________________________________________________________________
Layer (type)                 Output Shape              Param #   
=================================================================
input_layer (InputLayer)     (None, 76318)             0         
_________________________________________________________________
dropout_1 (Dropout)          (None, 76318)             0         
_________________________________________________________________
dense_1 (Dense)              (None, 128)               9768832   
_________________________________________________________________
dropout_2 (Dropout)          (None, 128)               0         
_________________________________________________________________
output_layer (Dense)         (None, 3)                 387       
=================================================================
Total params: 9,769,219
Trainable params: 9,769,219
Non-trainable params: 0
_________________________________________________________________


----- Fold 1 of 10 -----
Epoch 001: val_loss improved from inf to 0.48935; runtime 0:00:08; BEST YET
Epoch 002: val_loss improved from 0.48935 to 0.38915; runtime 0:00:08; BEST YET
Epoch 003: val_loss improved from 0.38915 to 0.37186; runtime 0:00:08; BEST YET
…
